{"class_name": "Model", "config": {"name": "model_2", "layers": [{"name": "input_2", "class_name": "InputLayer", "config": {"batch_input_shape": [null, 96, 128, 1], "dtype": "float32", "sparse": false, "name": "input_2"}, "inbound_nodes": []}, {"name": "conv2d_59", "class_name": "Conv2D", "config": {"name": "conv2d_59", "trainable": true, "dtype": "float32", "filters": 8, "kernel_size": [3, 3], "strides": [1, 1], "padding": "same", "data_format": "channels_last", "dilation_rate": [1, 1], "activation": "linear", "use_bias": false, "kernel_initializer": {"class_name": "VarianceScaling", "config": {"scale": 1.0, "mode": "fan_avg", "distribution": "uniform", "seed": null}}, "bias_initializer": {"class_name": "Zeros", "config": {}}, "kernel_regularizer": null, "bias_regularizer": null, "activity_regularizer": null, "kernel_constraint": null, "bias_constraint": null}, "inbound_nodes": [[["input_2", 0, 0, {}]]]}, {"name": "batch_normalization_87", "class_name": "BatchNormalization", "config": {"name": "batch_normalization_87", "trainable": true, "dtype": "float32", "axis": 3, "momentum": 0.99, "epsilon": 0.001, "center": true, "scale": false, "beta_initializer": {"class_name": "Zeros", "config": {}}, "gamma_initializer": {"class_name": "Ones", "config": {}}, "moving_mean_initializer": {"class_name": "Zeros", "config": {}}, "moving_variance_initializer": {"class_name": "Ones", "config": {}}, "beta_regularizer": null, "gamma_regularizer": null, "beta_constraint": null, "gamma_constraint": null}, "inbound_nodes": [[["conv2d_59", 0, 0, {}]]]}, {"name": "activation_58", "class_name": "Activation", "config": {"name": "activation_58", "trainable": true, "dtype": "float32", "activation": "relu"}, "inbound_nodes": [[["batch_normalization_87", 0, 0, {}]]]}, {"name": "conv2d_60", "class_name": "Conv2D", "config": {"name": "conv2d_60", "trainable": true, "dtype": "float32", "filters": 17, "kernel_size": [3, 3], "strides": [1, 1], "padding": "same", "data_format": "channels_last", "dilation_rate": [1, 1], "activation": "linear", "use_bias": false, "kernel_initializer": {"class_name": "VarianceScaling", "config": {"scale": 1.0, "mode": "fan_avg", "distribution": "uniform", "seed": null}}, "bias_initializer": {"class_name": "Zeros", "config": {}}, "kernel_regularizer": null, "bias_regularizer": null, "activity_regularizer": null, "kernel_constraint": null, "bias_constraint": null}, "inbound_nodes": [[["activation_58", 0, 0, {}]]]}, {"name": "batch_normalization_88", "class_name": "BatchNormalization", "config": {"name": "batch_normalization_88", "trainable": true, "dtype": "float32", "axis": 3, "momentum": 0.99, "epsilon": 0.001, "center": true, "scale": false, "beta_initializer": {"class_name": "Zeros", "config": {}}, "gamma_initializer": {"class_name": "Ones", "config": {}}, "moving_mean_initializer": {"class_name": "Zeros", "config": {}}, "moving_variance_initializer": {"class_name": "Ones", "config": {}}, "beta_regularizer": null, "gamma_regularizer": null, "beta_constraint": null, "gamma_constraint": null}, "inbound_nodes": [[["conv2d_60", 0, 0, {}]]]}, {"name": "activation_59", "class_name": "Activation", "config": {"name": "activation_59", "trainable": true, "dtype": "float32", "activation": "relu"}, "inbound_nodes": [[["batch_normalization_88", 0, 0, {}]]]}, {"name": "conv2d_61", "class_name": "Conv2D", "config": {"name": "conv2d_61", "trainable": true, "dtype": "float32", "filters": 26, "kernel_size": [3, 3], "strides": [1, 1], "padding": "same", "data_format": "channels_last", "dilation_rate": [1, 1], "activation": "linear", "use_bias": false, "kernel_initializer": {"class_name": "VarianceScaling", "config": {"scale": 1.0, "mode": "fan_avg", "distribution": "uniform", "seed": null}}, "bias_initializer": {"class_name": "Zeros", "config": {}}, "kernel_regularizer": null, "bias_regularizer": null, "activity_regularizer": null, "kernel_constraint": null, "bias_constraint": null}, "inbound_nodes": [[["activation_59", 0, 0, {}]]]}, {"name": "batch_normalization_89", "class_name": "BatchNormalization", "config": {"name": "batch_normalization_89", "trainable": true, "dtype": "float32", "axis": 3, "momentum": 0.99, "epsilon": 0.001, "center": true, "scale": false, "beta_initializer": {"class_name": "Zeros", "config": {}}, "gamma_initializer": {"class_name": "Ones", "config": {}}, "moving_mean_initializer": {"class_name": "Zeros", "config": {}}, "moving_variance_initializer": {"class_name": "Ones", "config": {}}, "beta_regularizer": null, "gamma_regularizer": null, "beta_constraint": null, "gamma_constraint": null}, "inbound_nodes": [[["conv2d_61", 0, 0, {}]]]}, {"name": "activation_60", "class_name": "Activation", "config": {"name": "activation_60", "trainable": true, "dtype": "float32", "activation": "relu"}, "inbound_nodes": [[["batch_normalization_89", 0, 0, {}]]]}, {"name": "conv2d_58", "class_name": "Conv2D", "config": {"name": "conv2d_58", "trainable": true, "dtype": "float32", "filters": 51, "kernel_size": [1, 1], "strides": [1, 1], "padding": "same", "data_format": "channels_last", "dilation_rate": [1, 1], "activation": "linear", "use_bias": false, "kernel_initializer": {"class_name": "VarianceScaling", "config": {"scale": 1.0, "mode": "fan_avg", "distribution": "uniform", "seed": null}}, "bias_initializer": {"class_name": "Zeros", "config": {}}, "kernel_regularizer": null, "bias_regularizer": null, "activity_regularizer": null, "kernel_constraint": null, "bias_constraint": null}, "inbound_nodes": [[["input_2", 0, 0, {}]]]}, {"name": "concatenate_14", "class_name": "Concatenate", "config": {"name": "concatenate_14", "trainable": true, "dtype": "float32", "axis": 3}, "inbound_nodes": [[["activation_58", 0, 0, {}], ["activation_59", 0, 0, {}], ["activation_60", 0, 0, {}]]]}, {"name": "batch_normalization_86", "class_name": "BatchNormalization", "config": {"name": "batch_normalization_86", "trainable": true, "dtype": "float32", "axis": 3, "momentum": 0.99, "epsilon": 0.001, "center": true, "scale": false, "beta_initializer": {"class_name": "Zeros", "config": {}}, "gamma_initializer": {"class_name": "Ones", "config": {}}, "moving_mean_initializer": {"class_name": "Zeros", "config": {}}, "moving_variance_initializer": {"class_name": "Ones", "config": {}}, "beta_regularizer": null, "gamma_regularizer": null, "beta_constraint": null, "gamma_constraint": null}, "inbound_nodes": [[["conv2d_58", 0, 0, {}]]]}, {"name": "batch_normalization_90", "class_name": "BatchNormalization", "config": {"name": "batch_normalization_90", "trainable": true, "dtype": "float32", "axis": 3, "momentum": 0.99, "epsilon": 0.001, "center": true, "scale": true, "beta_initializer": {"class_name": "Zeros", "config": {}}, "gamma_initializer": {"class_name": "Ones", "config": {}}, "moving_mean_initializer": {"class_name": "Zeros", "config": {}}, "moving_variance_initializer": {"class_name": "Ones", "config": {}}, "beta_regularizer": null, "gamma_regularizer": null, "beta_constraint": null, "gamma_constraint": null}, "inbound_nodes": [[["concatenate_14", 0, 0, {}]]]}, {"name": "add_20", "class_name": "Add", "config": {"name": "add_20", "trainable": true, "dtype": "float32"}, "inbound_nodes": [[["batch_normalization_86", 0, 0, {}], ["batch_normalization_90", 0, 0, {}]]]}, {"name": "activation_61", "class_name": "Activation", "config": {"name": "activation_61", "trainable": true, "dtype": "float32", "activation": "relu"}, "inbound_nodes": [[["add_20", 0, 0, {}]]]}, {"name": "batch_normalization_91", "class_name": "BatchNormalization", "config": {"name": "batch_normalization_91", "trainable": true, "dtype": "float32", "axis": 3, "momentum": 0.99, "epsilon": 0.001, "center": true, "scale": true, "beta_initializer": {"class_name": "Zeros", "config": {}}, "gamma_initializer": {"class_name": "Ones", "config": {}}, "moving_mean_initializer": {"class_name": "Zeros", "config": {}}, "moving_variance_initializer": {"class_name": "Ones", "config": {}}, "beta_regularizer": null, "gamma_regularizer": null, "beta_constraint": null, "gamma_constraint": null}, "inbound_nodes": [[["activation_61", 0, 0, {}]]]}, {"name": "max_pooling2d_5", "class_name": "MaxPooling2D", "config": {"name": "max_pooling2d_5", "trainable": true, "dtype": "float32", "pool_size": [2, 2], "padding": "valid", "strides": [2, 2], "data_format": "channels_last"}, "inbound_nodes": [[["batch_normalization_91", 0, 0, {}]]]}, {"name": "conv2d_71", "class_name": "Conv2D", "config": {"name": "conv2d_71", "trainable": true, "dtype": "float32", "filters": 17, "kernel_size": [3, 3], "strides": [1, 1], "padding": "same", "data_format": "channels_last", "dilation_rate": [1, 1], "activation": "linear", "use_bias": false, "kernel_initializer": {"class_name": "VarianceScaling", "config": {"scale": 1.0, "mode": "fan_avg", "distribution": "uniform", "seed": null}}, "bias_initializer": {"class_name": "Zeros", "config": {}}, "kernel_regularizer": null, "bias_regularizer": null, "activity_regularizer": null, "kernel_constraint": null, "bias_constraint": null}, "inbound_nodes": [[["max_pooling2d_5", 0, 0, {}]]]}, {"name": "batch_normalization_105", "class_name": "BatchNormalization", "config": {"name": "batch_normalization_105", "trainable": true, "dtype": "float32", "axis": 3, "momentum": 0.99, "epsilon": 0.001, "center": true, "scale": false, "beta_initializer": {"class_name": "Zeros", "config": {}}, "gamma_initializer": {"class_name": "Ones", "config": {}}, "moving_mean_initializer": {"class_name": "Zeros", "config": {}}, "moving_variance_initializer": {"class_name": "Ones", "config": {}}, "beta_regularizer": null, "gamma_regularizer": null, "beta_constraint": null, "gamma_constraint": null}, "inbound_nodes": [[["conv2d_71", 0, 0, {}]]]}, {"name": "activation_70", "class_name": "Activation", "config": {"name": "activation_70", "trainable": true, "dtype": "float32", "activation": "relu"}, "inbound_nodes": [[["batch_normalization_105", 0, 0, {}]]]}, {"name": "conv2d_72", "class_name": "Conv2D", "config": {"name": "conv2d_72", "trainable": true, "dtype": "float32", "filters": 35, "kernel_size": [3, 3], "strides": [1, 1], "padding": "same", "data_format": "channels_last", "dilation_rate": [1, 1], "activation": "linear", "use_bias": false, "kernel_initializer": {"class_name": "VarianceScaling", "config": {"scale": 1.0, "mode": "fan_avg", "distribution": "uniform", "seed": null}}, "bias_initializer": {"class_name": "Zeros", "config": {}}, "kernel_regularizer": null, "bias_regularizer": null, "activity_regularizer": null, "kernel_constraint": null, "bias_constraint": null}, "inbound_nodes": [[["activation_70", 0, 0, {}]]]}, {"name": "batch_normalization_106", "class_name": "BatchNormalization", "config": {"name": "batch_normalization_106", "trainable": true, "dtype": "float32", "axis": 3, "momentum": 0.99, "epsilon": 0.001, "center": true, "scale": false, "beta_initializer": {"class_name": "Zeros", "config": {}}, "gamma_initializer": {"class_name": "Ones", "config": {}}, "moving_mean_initializer": {"class_name": "Zeros", "config": {}}, "moving_variance_initializer": {"class_name": "Ones", "config": {}}, "beta_regularizer": null, "gamma_regularizer": null, "beta_constraint": null, "gamma_constraint": null}, "inbound_nodes": [[["conv2d_72", 0, 0, {}]]]}, {"name": "activation_71", "class_name": "Activation", "config": {"name": "activation_71", "trainable": true, "dtype": "float32", "activation": "relu"}, "inbound_nodes": [[["batch_normalization_106", 0, 0, {}]]]}, {"name": "conv2d_73", "class_name": "Conv2D", "config": {"name": "conv2d_73", "trainable": true, "dtype": "float32", "filters": 53, "kernel_size": [3, 3], "strides": [1, 1], "padding": "same", "data_format": "channels_last", "dilation_rate": [1, 1], "activation": "linear", "use_bias": false, "kernel_initializer": {"class_name": "VarianceScaling", "config": {"scale": 1.0, "mode": "fan_avg", "distribution": "uniform", "seed": null}}, "bias_initializer": {"class_name": "Zeros", "config": {}}, "kernel_regularizer": null, "bias_regularizer": null, "activity_regularizer": null, "kernel_constraint": null, "bias_constraint": null}, "inbound_nodes": [[["activation_71", 0, 0, {}]]]}, {"name": "batch_normalization_107", "class_name": "BatchNormalization", "config": {"name": "batch_normalization_107", "trainable": true, "dtype": "float32", "axis": 3, "momentum": 0.99, "epsilon": 0.001, "center": true, "scale": false, "beta_initializer": {"class_name": "Zeros", "config": {}}, "gamma_initializer": {"class_name": "Ones", "config": {}}, "moving_mean_initializer": {"class_name": "Zeros", "config": {}}, "moving_variance_initializer": {"class_name": "Ones", "config": {}}, "beta_regularizer": null, "gamma_regularizer": null, "beta_constraint": null, "gamma_constraint": null}, "inbound_nodes": [[["conv2d_73", 0, 0, {}]]]}, {"name": "activation_72", "class_name": "Activation", "config": {"name": "activation_72", "trainable": true, "dtype": "float32", "activation": "relu"}, "inbound_nodes": [[["batch_normalization_107", 0, 0, {}]]]}, {"name": "conv2d_70", "class_name": "Conv2D", "config": {"name": "conv2d_70", "trainable": true, "dtype": "float32", "filters": 105, "kernel_size": [1, 1], "strides": [1, 1], "padding": "same", "data_format": "channels_last", "dilation_rate": [1, 1], "activation": "linear", "use_bias": false, "kernel_initializer": {"class_name": "VarianceScaling", "config": {"scale": 1.0, "mode": "fan_avg", "distribution": "uniform", "seed": null}}, "bias_initializer": {"class_name": "Zeros", "config": {}}, "kernel_regularizer": null, "bias_regularizer": null, "activity_regularizer": null, "kernel_constraint": null, "bias_constraint": null}, "inbound_nodes": [[["max_pooling2d_5", 0, 0, {}]]]}, {"name": "concatenate_15", "class_name": "Concatenate", "config": {"name": "concatenate_15", "trainable": true, "dtype": "float32", "axis": 3}, "inbound_nodes": [[["activation_70", 0, 0, {}], ["activation_71", 0, 0, {}], ["activation_72", 0, 0, {}]]]}, {"name": "batch_normalization_104", "class_name": "BatchNormalization", "config": {"name": "batch_normalization_104", "trainable": true, "dtype": "float32", "axis": 3, "momentum": 0.99, "epsilon": 0.001, "center": true, "scale": false, "beta_initializer": {"class_name": "Zeros", "config": {}}, "gamma_initializer": {"class_name": "Ones", "config": {}}, "moving_mean_initializer": {"class_name": "Zeros", "config": {}}, "moving_variance_initializer": {"class_name": "Ones", "config": {}}, "beta_regularizer": null, "gamma_regularizer": null, "beta_constraint": null, "gamma_constraint": null}, "inbound_nodes": [[["conv2d_70", 0, 0, {}]]]}, {"name": "batch_normalization_108", "class_name": "BatchNormalization", "config": {"name": "batch_normalization_108", "trainable": true, "dtype": "float32", "axis": 3, "momentum": 0.99, "epsilon": 0.001, "center": true, "scale": true, "beta_initializer": {"class_name": "Zeros", "config": {}}, "gamma_initializer": {"class_name": "Ones", "config": {}}, "moving_mean_initializer": {"class_name": "Zeros", "config": {}}, "moving_variance_initializer": {"class_name": "Ones", "config": {}}, "beta_regularizer": null, "gamma_regularizer": null, "beta_constraint": null, "gamma_constraint": null}, "inbound_nodes": [[["concatenate_15", 0, 0, {}]]]}, {"name": "add_25", "class_name": "Add", "config": {"name": "add_25", "trainable": true, "dtype": "float32"}, "inbound_nodes": [[["batch_normalization_104", 0, 0, {}], ["batch_normalization_108", 0, 0, {}]]]}, {"name": "activation_73", "class_name": "Activation", "config": {"name": "activation_73", "trainable": true, "dtype": "float32", "activation": "relu"}, "inbound_nodes": [[["add_25", 0, 0, {}]]]}, {"name": "batch_normalization_109", "class_name": "BatchNormalization", "config": {"name": "batch_normalization_109", "trainable": true, "dtype": "float32", "axis": 3, "momentum": 0.99, "epsilon": 0.001, "center": true, "scale": true, "beta_initializer": {"class_name": "Zeros", "config": {}}, "gamma_initializer": {"class_name": "Ones", "config": {}}, "moving_mean_initializer": {"class_name": "Zeros", "config": {}}, "moving_variance_initializer": {"class_name": "Ones", "config": {}}, "beta_regularizer": null, "gamma_regularizer": null, "beta_constraint": null, "gamma_constraint": null}, "inbound_nodes": [[["activation_73", 0, 0, {}]]]}, {"name": "max_pooling2d_6", "class_name": "MaxPooling2D", "config": {"name": "max_pooling2d_6", "trainable": true, "dtype": "float32", "pool_size": [2, 2], "padding": "valid", "strides": [2, 2], "data_format": "channels_last"}, "inbound_nodes": [[["batch_normalization_109", 0, 0, {}]]]}, {"name": "conv2d_81", "class_name": "Conv2D", "config": {"name": "conv2d_81", "trainable": true, "dtype": "float32", "filters": 35, "kernel_size": [3, 3], "strides": [1, 1], "padding": "same", "data_format": "channels_last", "dilation_rate": [1, 1], "activation": "linear", "use_bias": false, "kernel_initializer": {"class_name": "VarianceScaling", "config": {"scale": 1.0, "mode": "fan_avg", "distribution": "uniform", "seed": null}}, "bias_initializer": {"class_name": "Zeros", "config": {}}, "kernel_regularizer": null, "bias_regularizer": null, "activity_regularizer": null, "kernel_constraint": null, "bias_constraint": null}, "inbound_nodes": [[["max_pooling2d_6", 0, 0, {}]]]}, {"name": "batch_normalization_120", "class_name": "BatchNormalization", "config": {"name": "batch_normalization_120", "trainable": true, "dtype": "float32", "axis": 3, "momentum": 0.99, "epsilon": 0.001, "center": true, "scale": false, "beta_initializer": {"class_name": "Zeros", "config": {}}, "gamma_initializer": {"class_name": "Ones", "config": {}}, "moving_mean_initializer": {"class_name": "Zeros", "config": {}}, "moving_variance_initializer": {"class_name": "Ones", "config": {}}, "beta_regularizer": null, "gamma_regularizer": null, "beta_constraint": null, "gamma_constraint": null}, "inbound_nodes": [[["conv2d_81", 0, 0, {}]]]}, {"name": "activation_80", "class_name": "Activation", "config": {"name": "activation_80", "trainable": true, "dtype": "float32", "activation": "relu"}, "inbound_nodes": [[["batch_normalization_120", 0, 0, {}]]]}, {"name": "conv2d_82", "class_name": "Conv2D", "config": {"name": "conv2d_82", "trainable": true, "dtype": "float32", "filters": 71, "kernel_size": [3, 3], "strides": [1, 1], "padding": "same", "data_format": "channels_last", "dilation_rate": [1, 1], "activation": "linear", "use_bias": false, "kernel_initializer": {"class_name": "VarianceScaling", "config": {"scale": 1.0, "mode": "fan_avg", "distribution": "uniform", "seed": null}}, "bias_initializer": {"class_name": "Zeros", "config": {}}, "kernel_regularizer": null, "bias_regularizer": null, "activity_regularizer": null, "kernel_constraint": null, "bias_constraint": null}, "inbound_nodes": [[["activation_80", 0, 0, {}]]]}, {"name": "batch_normalization_121", "class_name": "BatchNormalization", "config": {"name": "batch_normalization_121", "trainable": true, "dtype": "float32", "axis": 3, "momentum": 0.99, "epsilon": 0.001, "center": true, "scale": false, "beta_initializer": {"class_name": "Zeros", "config": {}}, "gamma_initializer": {"class_name": "Ones", "config": {}}, "moving_mean_initializer": {"class_name": "Zeros", "config": {}}, "moving_variance_initializer": {"class_name": "Ones", "config": {}}, "beta_regularizer": null, "gamma_regularizer": null, "beta_constraint": null, "gamma_constraint": null}, "inbound_nodes": [[["conv2d_82", 0, 0, {}]]]}, {"name": "activation_81", "class_name": "Activation", "config": {"name": "activation_81", "trainable": true, "dtype": "float32", "activation": "relu"}, "inbound_nodes": [[["batch_normalization_121", 0, 0, {}]]]}, {"name": "conv2d_83", "class_name": "Conv2D", "config": {"name": "conv2d_83", "trainable": true, "dtype": "float32", "filters": 106, "kernel_size": [3, 3], "strides": [1, 1], "padding": "same", "data_format": "channels_last", "dilation_rate": [1, 1], "activation": "linear", "use_bias": false, "kernel_initializer": {"class_name": "VarianceScaling", "config": {"scale": 1.0, "mode": "fan_avg", "distribution": "uniform", "seed": null}}, "bias_initializer": {"class_name": "Zeros", "config": {}}, "kernel_regularizer": null, "bias_regularizer": null, "activity_regularizer": null, "kernel_constraint": null, "bias_constraint": null}, "inbound_nodes": [[["activation_81", 0, 0, {}]]]}, {"name": "batch_normalization_122", "class_name": "BatchNormalization", "config": {"name": "batch_normalization_122", "trainable": true, "dtype": "float32", "axis": 3, "momentum": 0.99, "epsilon": 0.001, "center": true, "scale": false, "beta_initializer": {"class_name": "Zeros", "config": {}}, "gamma_initializer": {"class_name": "Ones", "config": {}}, "moving_mean_initializer": {"class_name": "Zeros", "config": {}}, "moving_variance_initializer": {"class_name": "Ones", "config": {}}, "beta_regularizer": null, "gamma_regularizer": null, "beta_constraint": null, "gamma_constraint": null}, "inbound_nodes": [[["conv2d_83", 0, 0, {}]]]}, {"name": "activation_82", "class_name": "Activation", "config": {"name": "activation_82", "trainable": true, "dtype": "float32", "activation": "relu"}, "inbound_nodes": [[["batch_normalization_122", 0, 0, {}]]]}, {"name": "conv2d_80", "class_name": "Conv2D", "config": {"name": "conv2d_80", "trainable": true, "dtype": "float32", "filters": 212, "kernel_size": [1, 1], "strides": [1, 1], "padding": "same", "data_format": "channels_last", "dilation_rate": [1, 1], "activation": "linear", "use_bias": false, "kernel_initializer": {"class_name": "VarianceScaling", "config": {"scale": 1.0, "mode": "fan_avg", "distribution": "uniform", "seed": null}}, "bias_initializer": {"class_name": "Zeros", "config": {}}, "kernel_regularizer": null, "bias_regularizer": null, "activity_regularizer": null, "kernel_constraint": null, "bias_constraint": null}, "inbound_nodes": [[["max_pooling2d_6", 0, 0, {}]]]}, {"name": "concatenate_16", "class_name": "Concatenate", "config": {"name": "concatenate_16", "trainable": true, "dtype": "float32", "axis": 3}, "inbound_nodes": [[["activation_80", 0, 0, {}], ["activation_81", 0, 0, {}], ["activation_82", 0, 0, {}]]]}, {"name": "batch_normalization_119", "class_name": "BatchNormalization", "config": {"name": "batch_normalization_119", "trainable": true, "dtype": "float32", "axis": 3, "momentum": 0.99, "epsilon": 0.001, "center": true, "scale": false, "beta_initializer": {"class_name": "Zeros", "config": {}}, "gamma_initializer": {"class_name": "Ones", "config": {}}, "moving_mean_initializer": {"class_name": "Zeros", "config": {}}, "moving_variance_initializer": {"class_name": "Ones", "config": {}}, "beta_regularizer": null, "gamma_regularizer": null, "beta_constraint": null, "gamma_constraint": null}, "inbound_nodes": [[["conv2d_80", 0, 0, {}]]]}, {"name": "batch_normalization_123", "class_name": "BatchNormalization", "config": {"name": "batch_normalization_123", "trainable": true, "dtype": "float32", "axis": 3, "momentum": 0.99, "epsilon": 0.001, "center": true, "scale": true, "beta_initializer": {"class_name": "Zeros", "config": {}}, "gamma_initializer": {"class_name": "Ones", "config": {}}, "moving_mean_initializer": {"class_name": "Zeros", "config": {}}, "moving_variance_initializer": {"class_name": "Ones", "config": {}}, "beta_regularizer": null, "gamma_regularizer": null, "beta_constraint": null, "gamma_constraint": null}, "inbound_nodes": [[["concatenate_16", 0, 0, {}]]]}, {"name": "add_29", "class_name": "Add", "config": {"name": "add_29", "trainable": true, "dtype": "float32"}, "inbound_nodes": [[["batch_normalization_119", 0, 0, {}], ["batch_normalization_123", 0, 0, {}]]]}, {"name": "activation_83", "class_name": "Activation", "config": {"name": "activation_83", "trainable": true, "dtype": "float32", "activation": "relu"}, "inbound_nodes": [[["add_29", 0, 0, {}]]]}, {"name": "batch_normalization_124", "class_name": "BatchNormalization", "config": {"name": "batch_normalization_124", "trainable": true, "dtype": "float32", "axis": 3, "momentum": 0.99, "epsilon": 0.001, "center": true, "scale": true, "beta_initializer": {"class_name": "Zeros", "config": {}}, "gamma_initializer": {"class_name": "Ones", "config": {}}, "moving_mean_initializer": {"class_name": "Zeros", "config": {}}, "moving_variance_initializer": {"class_name": "Ones", "config": {}}, "beta_regularizer": null, "gamma_regularizer": null, "beta_constraint": null, "gamma_constraint": null}, "inbound_nodes": [[["activation_83", 0, 0, {}]]]}, {"name": "max_pooling2d_7", "class_name": "MaxPooling2D", "config": {"name": "max_pooling2d_7", "trainable": true, "dtype": "float32", "pool_size": [2, 2], "padding": "valid", "strides": [2, 2], "data_format": "channels_last"}, "inbound_nodes": [[["batch_normalization_124", 0, 0, {}]]]}, {"name": "conv2d_89", "class_name": "Conv2D", "config": {"name": "conv2d_89", "trainable": true, "dtype": "float32", "filters": 71, "kernel_size": [3, 3], "strides": [1, 1], "padding": "same", "data_format": "channels_last", "dilation_rate": [1, 1], "activation": "linear", "use_bias": false, "kernel_initializer": {"class_name": "VarianceScaling", "config": {"scale": 1.0, "mode": "fan_avg", "distribution": "uniform", "seed": null}}, "bias_initializer": {"class_name": "Zeros", "config": {}}, "kernel_regularizer": null, "bias_regularizer": null, "activity_regularizer": null, "kernel_constraint": null, "bias_constraint": null}, "inbound_nodes": [[["max_pooling2d_7", 0, 0, {}]]]}, {"name": "batch_normalization_132", "class_name": "BatchNormalization", "config": {"name": "batch_normalization_132", "trainable": true, "dtype": "float32", "axis": 3, "momentum": 0.99, "epsilon": 0.001, "center": true, "scale": false, "beta_initializer": {"class_name": "Zeros", "config": {}}, "gamma_initializer": {"class_name": "Ones", "config": {}}, "moving_mean_initializer": {"class_name": "Zeros", "config": {}}, "moving_variance_initializer": {"class_name": "Ones", "config": {}}, "beta_regularizer": null, "gamma_regularizer": null, "beta_constraint": null, "gamma_constraint": null}, "inbound_nodes": [[["conv2d_89", 0, 0, {}]]]}, {"name": "activation_88", "class_name": "Activation", "config": {"name": "activation_88", "trainable": true, "dtype": "float32", "activation": "relu"}, "inbound_nodes": [[["batch_normalization_132", 0, 0, {}]]]}, {"name": "conv2d_90", "class_name": "Conv2D", "config": {"name": "conv2d_90", "trainable": true, "dtype": "float32", "filters": 142, "kernel_size": [3, 3], "strides": [1, 1], "padding": "same", "data_format": "channels_last", "dilation_rate": [1, 1], "activation": "linear", "use_bias": false, "kernel_initializer": {"class_name": "VarianceScaling", "config": {"scale": 1.0, "mode": "fan_avg", "distribution": "uniform", "seed": null}}, "bias_initializer": {"class_name": "Zeros", "config": {}}, "kernel_regularizer": null, "bias_regularizer": null, "activity_regularizer": null, "kernel_constraint": null, "bias_constraint": null}, "inbound_nodes": [[["activation_88", 0, 0, {}]]]}, {"name": "batch_normalization_133", "class_name": "BatchNormalization", "config": {"name": "batch_normalization_133", "trainable": true, "dtype": "float32", "axis": 3, "momentum": 0.99, "epsilon": 0.001, "center": true, "scale": false, "beta_initializer": {"class_name": "Zeros", "config": {}}, "gamma_initializer": {"class_name": "Ones", "config": {}}, "moving_mean_initializer": {"class_name": "Zeros", "config": {}}, "moving_variance_initializer": {"class_name": "Ones", "config": {}}, "beta_regularizer": null, "gamma_regularizer": null, "beta_constraint": null, "gamma_constraint": null}, "inbound_nodes": [[["conv2d_90", 0, 0, {}]]]}, {"name": "activation_89", "class_name": "Activation", "config": {"name": "activation_89", "trainable": true, "dtype": "float32", "activation": "relu"}, "inbound_nodes": [[["batch_normalization_133", 0, 0, {}]]]}, {"name": "conv2d_91", "class_name": "Conv2D", "config": {"name": "conv2d_91", "trainable": true, "dtype": "float32", "filters": 213, "kernel_size": [3, 3], "strides": [1, 1], "padding": "same", "data_format": "channels_last", "dilation_rate": [1, 1], "activation": "linear", "use_bias": false, "kernel_initializer": {"class_name": "VarianceScaling", "config": {"scale": 1.0, "mode": "fan_avg", "distribution": "uniform", "seed": null}}, "bias_initializer": {"class_name": "Zeros", "config": {}}, "kernel_regularizer": null, "bias_regularizer": null, "activity_regularizer": null, "kernel_constraint": null, "bias_constraint": null}, "inbound_nodes": [[["activation_89", 0, 0, {}]]]}, {"name": "batch_normalization_134", "class_name": "BatchNormalization", "config": {"name": "batch_normalization_134", "trainable": true, "dtype": "float32", "axis": 3, "momentum": 0.99, "epsilon": 0.001, "center": true, "scale": false, "beta_initializer": {"class_name": "Zeros", "config": {}}, "gamma_initializer": {"class_name": "Ones", "config": {}}, "moving_mean_initializer": {"class_name": "Zeros", "config": {}}, "moving_variance_initializer": {"class_name": "Ones", "config": {}}, "beta_regularizer": null, "gamma_regularizer": null, "beta_constraint": null, "gamma_constraint": null}, "inbound_nodes": [[["conv2d_91", 0, 0, {}]]]}, {"name": "activation_90", "class_name": "Activation", "config": {"name": "activation_90", "trainable": true, "dtype": "float32", "activation": "relu"}, "inbound_nodes": [[["batch_normalization_134", 0, 0, {}]]]}, {"name": "conv2d_88", "class_name": "Conv2D", "config": {"name": "conv2d_88", "trainable": true, "dtype": "float32", "filters": 426, "kernel_size": [1, 1], "strides": [1, 1], "padding": "same", "data_format": "channels_last", "dilation_rate": [1, 1], "activation": "linear", "use_bias": false, "kernel_initializer": {"class_name": "VarianceScaling", "config": {"scale": 1.0, "mode": "fan_avg", "distribution": "uniform", "seed": null}}, "bias_initializer": {"class_name": "Zeros", "config": {}}, "kernel_regularizer": null, "bias_regularizer": null, "activity_regularizer": null, "kernel_constraint": null, "bias_constraint": null}, "inbound_nodes": [[["max_pooling2d_7", 0, 0, {}]]]}, {"name": "concatenate_17", "class_name": "Concatenate", "config": {"name": "concatenate_17", "trainable": true, "dtype": "float32", "axis": 3}, "inbound_nodes": [[["activation_88", 0, 0, {}], ["activation_89", 0, 0, {}], ["activation_90", 0, 0, {}]]]}, {"name": "batch_normalization_131", "class_name": "BatchNormalization", "config": {"name": "batch_normalization_131", "trainable": true, "dtype": "float32", "axis": 3, "momentum": 0.99, "epsilon": 0.001, "center": true, "scale": false, "beta_initializer": {"class_name": "Zeros", "config": {}}, "gamma_initializer": {"class_name": "Ones", "config": {}}, "moving_mean_initializer": {"class_name": "Zeros", "config": {}}, "moving_variance_initializer": {"class_name": "Ones", "config": {}}, "beta_regularizer": null, "gamma_regularizer": null, "beta_constraint": null, "gamma_constraint": null}, "inbound_nodes": [[["conv2d_88", 0, 0, {}]]]}, {"name": "batch_normalization_135", "class_name": "BatchNormalization", "config": {"name": "batch_normalization_135", "trainable": true, "dtype": "float32", "axis": 3, "momentum": 0.99, "epsilon": 0.001, "center": true, "scale": true, "beta_initializer": {"class_name": "Zeros", "config": {}}, "gamma_initializer": {"class_name": "Ones", "config": {}}, "moving_mean_initializer": {"class_name": "Zeros", "config": {}}, "moving_variance_initializer": {"class_name": "Ones", "config": {}}, "beta_regularizer": null, "gamma_regularizer": null, "beta_constraint": null, "gamma_constraint": null}, "inbound_nodes": [[["concatenate_17", 0, 0, {}]]]}, {"name": "add_32", "class_name": "Add", "config": {"name": "add_32", "trainable": true, "dtype": "float32"}, "inbound_nodes": [[["batch_normalization_131", 0, 0, {}], ["batch_normalization_135", 0, 0, {}]]]}, {"name": "activation_91", "class_name": "Activation", "config": {"name": "activation_91", "trainable": true, "dtype": "float32", "activation": "relu"}, "inbound_nodes": [[["add_32", 0, 0, {}]]]}, {"name": "batch_normalization_136", "class_name": "BatchNormalization", "config": {"name": "batch_normalization_136", "trainable": true, "dtype": "float32", "axis": 3, "momentum": 0.99, "epsilon": 0.001, "center": true, "scale": true, "beta_initializer": {"class_name": "Zeros", "config": {}}, "gamma_initializer": {"class_name": "Ones", "config": {}}, "moving_mean_initializer": {"class_name": "Zeros", "config": {}}, "moving_variance_initializer": {"class_name": "Ones", "config": {}}, "beta_regularizer": null, "gamma_regularizer": null, "beta_constraint": null, "gamma_constraint": null}, "inbound_nodes": [[["activation_91", 0, 0, {}]]]}, {"name": "max_pooling2d_8", "class_name": "MaxPooling2D", "config": {"name": "max_pooling2d_8", "trainable": true, "dtype": "float32", "pool_size": [2, 2], "padding": "valid", "strides": [2, 2], "data_format": "channels_last"}, "inbound_nodes": [[["batch_normalization_136", 0, 0, {}]]]}, {"name": "conv2d_95", "class_name": "Conv2D", "config": {"name": "conv2d_95", "trainable": true, "dtype": "float32", "filters": 142, "kernel_size": [3, 3], "strides": [1, 1], "padding": "same", "data_format": "channels_last", "dilation_rate": [1, 1], "activation": "linear", "use_bias": false, "kernel_initializer": {"class_name": "VarianceScaling", "config": {"scale": 1.0, "mode": "fan_avg", "distribution": "uniform", "seed": null}}, "bias_initializer": {"class_name": "Zeros", "config": {}}, "kernel_regularizer": null, "bias_regularizer": null, "activity_regularizer": null, "kernel_constraint": null, "bias_constraint": null}, "inbound_nodes": [[["max_pooling2d_8", 0, 0, {}]]]}, {"name": "batch_normalization_141", "class_name": "BatchNormalization", "config": {"name": "batch_normalization_141", "trainable": true, "dtype": "float32", "axis": 3, "momentum": 0.99, "epsilon": 0.001, "center": true, "scale": false, "beta_initializer": {"class_name": "Zeros", "config": {}}, "gamma_initializer": {"class_name": "Ones", "config": {}}, "moving_mean_initializer": {"class_name": "Zeros", "config": {}}, "moving_variance_initializer": {"class_name": "Ones", "config": {}}, "beta_regularizer": null, "gamma_regularizer": null, "beta_constraint": null, "gamma_constraint": null}, "inbound_nodes": [[["conv2d_95", 0, 0, {}]]]}, {"name": "activation_94", "class_name": "Activation", "config": {"name": "activation_94", "trainable": true, "dtype": "float32", "activation": "relu"}, "inbound_nodes": [[["batch_normalization_141", 0, 0, {}]]]}, {"name": "conv2d_96", "class_name": "Conv2D", "config": {"name": "conv2d_96", "trainable": true, "dtype": "float32", "filters": 284, "kernel_size": [3, 3], "strides": [1, 1], "padding": "same", "data_format": "channels_last", "dilation_rate": [1, 1], "activation": "linear", "use_bias": false, "kernel_initializer": {"class_name": "VarianceScaling", "config": {"scale": 1.0, "mode": "fan_avg", "distribution": "uniform", "seed": null}}, "bias_initializer": {"class_name": "Zeros", "config": {}}, "kernel_regularizer": null, "bias_regularizer": null, "activity_regularizer": null, "kernel_constraint": null, "bias_constraint": null}, "inbound_nodes": [[["activation_94", 0, 0, {}]]]}, {"name": "batch_normalization_142", "class_name": "BatchNormalization", "config": {"name": "batch_normalization_142", "trainable": true, "dtype": "float32", "axis": 3, "momentum": 0.99, "epsilon": 0.001, "center": true, "scale": false, "beta_initializer": {"class_name": "Zeros", "config": {}}, "gamma_initializer": {"class_name": "Ones", "config": {}}, "moving_mean_initializer": {"class_name": "Zeros", "config": {}}, "moving_variance_initializer": {"class_name": "Ones", "config": {}}, "beta_regularizer": null, "gamma_regularizer": null, "beta_constraint": null, "gamma_constraint": null}, "inbound_nodes": [[["conv2d_96", 0, 0, {}]]]}, {"name": "activation_95", "class_name": "Activation", "config": {"name": "activation_95", "trainable": true, "dtype": "float32", "activation": "relu"}, "inbound_nodes": [[["batch_normalization_142", 0, 0, {}]]]}, {"name": "conv2d_97", "class_name": "Conv2D", "config": {"name": "conv2d_97", "trainable": true, "dtype": "float32", "filters": 427, "kernel_size": [3, 3], "strides": [1, 1], "padding": "same", "data_format": "channels_last", "dilation_rate": [1, 1], "activation": "linear", "use_bias": false, "kernel_initializer": {"class_name": "VarianceScaling", "config": {"scale": 1.0, "mode": "fan_avg", "distribution": "uniform", "seed": null}}, "bias_initializer": {"class_name": "Zeros", "config": {}}, "kernel_regularizer": null, "bias_regularizer": null, "activity_regularizer": null, "kernel_constraint": null, "bias_constraint": null}, "inbound_nodes": [[["activation_95", 0, 0, {}]]]}, {"name": "batch_normalization_143", "class_name": "BatchNormalization", "config": {"name": "batch_normalization_143", "trainable": true, "dtype": "float32", "axis": 3, "momentum": 0.99, "epsilon": 0.001, "center": true, "scale": false, "beta_initializer": {"class_name": "Zeros", "config": {}}, "gamma_initializer": {"class_name": "Ones", "config": {}}, "moving_mean_initializer": {"class_name": "Zeros", "config": {}}, "moving_variance_initializer": {"class_name": "Ones", "config": {}}, "beta_regularizer": null, "gamma_regularizer": null, "beta_constraint": null, "gamma_constraint": null}, "inbound_nodes": [[["conv2d_97", 0, 0, {}]]]}, {"name": "activation_96", "class_name": "Activation", "config": {"name": "activation_96", "trainable": true, "dtype": "float32", "activation": "relu"}, "inbound_nodes": [[["batch_normalization_143", 0, 0, {}]]]}, {"name": "conv2d_94", "class_name": "Conv2D", "config": {"name": "conv2d_94", "trainable": true, "dtype": "float32", "filters": 853, "kernel_size": [1, 1], "strides": [1, 1], "padding": "same", "data_format": "channels_last", "dilation_rate": [1, 1], "activation": "linear", "use_bias": false, "kernel_initializer": {"class_name": "VarianceScaling", "config": {"scale": 1.0, "mode": "fan_avg", "distribution": "uniform", "seed": null}}, "bias_initializer": {"class_name": "Zeros", "config": {}}, "kernel_regularizer": null, "bias_regularizer": null, "activity_regularizer": null, "kernel_constraint": null, "bias_constraint": null}, "inbound_nodes": [[["max_pooling2d_8", 0, 0, {}]]]}, {"name": "concatenate_18", "class_name": "Concatenate", "config": {"name": "concatenate_18", "trainable": true, "dtype": "float32", "axis": 3}, "inbound_nodes": [[["activation_94", 0, 0, {}], ["activation_95", 0, 0, {}], ["activation_96", 0, 0, {}]]]}, {"name": "conv2d_93", "class_name": "Conv2D", "config": {"name": "conv2d_93", "trainable": true, "dtype": "float32", "filters": 256, "kernel_size": [3, 3], "strides": [1, 1], "padding": "same", "data_format": "channels_last", "dilation_rate": [1, 1], "activation": "linear", "use_bias": false, "kernel_initializer": {"class_name": "VarianceScaling", "config": {"scale": 1.0, "mode": "fan_avg", "distribution": "uniform", "seed": null}}, "bias_initializer": {"class_name": "Zeros", "config": {}}, "kernel_regularizer": null, "bias_regularizer": null, "activity_regularizer": null, "kernel_constraint": null, "bias_constraint": null}, "inbound_nodes": [[["batch_normalization_136", 0, 0, {}]]]}, {"name": "batch_normalization_140", "class_name": "BatchNormalization", "config": {"name": "batch_normalization_140", "trainable": true, "dtype": "float32", "axis": 3, "momentum": 0.99, "epsilon": 0.001, "center": true, "scale": false, "beta_initializer": {"class_name": "Zeros", "config": {}}, "gamma_initializer": {"class_name": "Ones", "config": {}}, "moving_mean_initializer": {"class_name": "Zeros", "config": {}}, "moving_variance_initializer": {"class_name": "Ones", "config": {}}, "beta_regularizer": null, "gamma_regularizer": null, "beta_constraint": null, "gamma_constraint": null}, "inbound_nodes": [[["conv2d_94", 0, 0, {}]]]}, {"name": "batch_normalization_144", "class_name": "BatchNormalization", "config": {"name": "batch_normalization_144", "trainable": true, "dtype": "float32", "axis": 3, "momentum": 0.99, "epsilon": 0.001, "center": true, "scale": true, "beta_initializer": {"class_name": "Zeros", "config": {}}, "gamma_initializer": {"class_name": "Ones", "config": {}}, "moving_mean_initializer": {"class_name": "Zeros", "config": {}}, "moving_variance_initializer": {"class_name": "Ones", "config": {}}, "beta_regularizer": null, "gamma_regularizer": null, "beta_constraint": null, "gamma_constraint": null}, "inbound_nodes": [[["concatenate_18", 0, 0, {}]]]}, {"name": "conv2d_92", "class_name": "Conv2D", "config": {"name": "conv2d_92", "trainable": true, "dtype": "float32", "filters": 256, "kernel_size": [1, 1], "strides": [1, 1], "padding": "same", "data_format": "channels_last", "dilation_rate": [1, 1], "activation": "linear", "use_bias": false, "kernel_initializer": {"class_name": "VarianceScaling", "config": {"scale": 1.0, "mode": "fan_avg", "distribution": "uniform", "seed": null}}, "bias_initializer": {"class_name": "Zeros", "config": {}}, "kernel_regularizer": null, "bias_regularizer": null, "activity_regularizer": null, "kernel_constraint": null, "bias_constraint": null}, "inbound_nodes": [[["batch_normalization_136", 0, 0, {}]]]}, {"name": "batch_normalization_138", "class_name": "BatchNormalization", "config": {"name": "batch_normalization_138", "trainable": true, "dtype": "float32", "axis": 3, "momentum": 0.99, "epsilon": 0.001, "center": true, "scale": false, "beta_initializer": {"class_name": "Zeros", "config": {}}, "gamma_initializer": {"class_name": "Ones", "config": {}}, "moving_mean_initializer": {"class_name": "Zeros", "config": {}}, "moving_variance_initializer": {"class_name": "Ones", "config": {}}, "beta_regularizer": null, "gamma_regularizer": null, "beta_constraint": null, "gamma_constraint": null}, "inbound_nodes": [[["conv2d_93", 0, 0, {}]]]}, {"name": "add_34", "class_name": "Add", "config": {"name": "add_34", "trainable": true, "dtype": "float32"}, "inbound_nodes": [[["batch_normalization_140", 0, 0, {}], ["batch_normalization_144", 0, 0, {}]]]}, {"name": "batch_normalization_137", "class_name": "BatchNormalization", "config": {"name": "batch_normalization_137", "trainable": true, "dtype": "float32", "axis": 3, "momentum": 0.99, "epsilon": 0.001, "center": true, "scale": false, "beta_initializer": {"class_name": "Zeros", "config": {}}, "gamma_initializer": {"class_name": "Ones", "config": {}}, "moving_mean_initializer": {"class_name": "Zeros", "config": {}}, "moving_variance_initializer": {"class_name": "Ones", "config": {}}, "beta_regularizer": null, "gamma_regularizer": null, "beta_constraint": null, "gamma_constraint": null}, "inbound_nodes": [[["conv2d_92", 0, 0, {}]]]}, {"name": "activation_92", "class_name": "Activation", "config": {"name": "activation_92", "trainable": true, "dtype": "float32", "activation": "relu"}, "inbound_nodes": [[["batch_normalization_138", 0, 0, {}]]]}, {"name": "activation_97", "class_name": "Activation", "config": {"name": "activation_97", "trainable": true, "dtype": "float32", "activation": "relu"}, "inbound_nodes": [[["add_34", 0, 0, {}]]]}, {"name": "add_33", "class_name": "Add", "config": {"name": "add_33", "trainable": true, "dtype": "float32"}, "inbound_nodes": [[["batch_normalization_137", 0, 0, {}], ["activation_92", 0, 0, {}]]]}, {"name": "batch_normalization_145", "class_name": "BatchNormalization", "config": {"name": "batch_normalization_145", "trainable": true, "dtype": "float32", "axis": 3, "momentum": 0.99, "epsilon": 0.001, "center": true, "scale": true, "beta_initializer": {"class_name": "Zeros", "config": {}}, "gamma_initializer": {"class_name": "Ones", "config": {}}, "moving_mean_initializer": {"class_name": "Zeros", "config": {}}, "moving_variance_initializer": {"class_name": "Ones", "config": {}}, "beta_regularizer": null, "gamma_regularizer": null, "beta_constraint": null, "gamma_constraint": null}, "inbound_nodes": [[["activation_97", 0, 0, {}]]]}, {"name": "activation_93", "class_name": "Activation", "config": {"name": "activation_93", "trainable": true, "dtype": "float32", "activation": "relu"}, "inbound_nodes": [[["add_33", 0, 0, {}]]]}, {"name": "conv2d_transpose_5", "class_name": "Conv2DTranspose", "config": {"name": "conv2d_transpose_5", "trainable": true, "dtype": "float32", "filters": 256, "kernel_size": [2, 2], "strides": [2, 2], "padding": "same", "data_format": "channels_last", "dilation_rate": [1, 1], "activation": "linear", "use_bias": true, "kernel_initializer": {"class_name": "VarianceScaling", "config": {"scale": 1.0, "mode": "fan_avg", "distribution": "uniform", "seed": null}}, "bias_initializer": {"class_name": "Zeros", "config": {}}, "kernel_regularizer": null, "bias_regularizer": null, "activity_regularizer": null, "kernel_constraint": null, "bias_constraint": null, "output_padding": null}, "inbound_nodes": [[["batch_normalization_145", 0, 0, {}]]]}, {"name": "batch_normalization_139", "class_name": "BatchNormalization", "config": {"name": "batch_normalization_139", "trainable": true, "dtype": "float32", "axis": 3, "momentum": 0.99, "epsilon": 0.001, "center": true, "scale": true, "beta_initializer": {"class_name": "Zeros", "config": {}}, "gamma_initializer": {"class_name": "Ones", "config": {}}, "moving_mean_initializer": {"class_name": "Zeros", "config": {}}, "moving_variance_initializer": {"class_name": "Ones", "config": {}}, "beta_regularizer": null, "gamma_regularizer": null, "beta_constraint": null, "gamma_constraint": null}, "inbound_nodes": [[["activation_93", 0, 0, {}]]]}, {"name": "concatenate_19", "class_name": "Concatenate", "config": {"name": "concatenate_19", "trainable": true, "dtype": "float32", "axis": 3}, "inbound_nodes": [[["conv2d_transpose_5", 0, 0, {}], ["batch_normalization_139", 0, 0, {}]]]}, {"name": "conv2d_99", "class_name": "Conv2D", "config": {"name": "conv2d_99", "trainable": true, "dtype": "float32", "filters": 71, "kernel_size": [3, 3], "strides": [1, 1], "padding": "same", "data_format": "channels_last", "dilation_rate": [1, 1], "activation": "linear", "use_bias": false, "kernel_initializer": {"class_name": "VarianceScaling", "config": {"scale": 1.0, "mode": "fan_avg", "distribution": "uniform", "seed": null}}, "bias_initializer": {"class_name": "Zeros", "config": {}}, "kernel_regularizer": null, "bias_regularizer": null, "activity_regularizer": null, "kernel_constraint": null, "bias_constraint": null}, "inbound_nodes": [[["concatenate_19", 0, 0, {}]]]}, {"name": "batch_normalization_147", "class_name": "BatchNormalization", "config": {"name": "batch_normalization_147", "trainable": true, "dtype": "float32", "axis": 3, "momentum": 0.99, "epsilon": 0.001, "center": true, "scale": false, "beta_initializer": {"class_name": "Zeros", "config": {}}, "gamma_initializer": {"class_name": "Ones", "config": {}}, "moving_mean_initializer": {"class_name": "Zeros", "config": {}}, "moving_variance_initializer": {"class_name": "Ones", "config": {}}, "beta_regularizer": null, "gamma_regularizer": null, "beta_constraint": null, "gamma_constraint": null}, "inbound_nodes": [[["conv2d_99", 0, 0, {}]]]}, {"name": "activation_98", "class_name": "Activation", "config": {"name": "activation_98", "trainable": true, "dtype": "float32", "activation": "relu"}, "inbound_nodes": [[["batch_normalization_147", 0, 0, {}]]]}, {"name": "conv2d_100", "class_name": "Conv2D", "config": {"name": "conv2d_100", "trainable": true, "dtype": "float32", "filters": 142, "kernel_size": [3, 3], "strides": [1, 1], "padding": "same", "data_format": "channels_last", "dilation_rate": [1, 1], "activation": "linear", "use_bias": false, "kernel_initializer": {"class_name": "VarianceScaling", "config": {"scale": 1.0, "mode": "fan_avg", "distribution": "uniform", "seed": null}}, "bias_initializer": {"class_name": "Zeros", "config": {}}, "kernel_regularizer": null, "bias_regularizer": null, "activity_regularizer": null, "kernel_constraint": null, "bias_constraint": null}, "inbound_nodes": [[["activation_98", 0, 0, {}]]]}, {"name": "conv2d_85", "class_name": "Conv2D", "config": {"name": "conv2d_85", "trainable": true, "dtype": "float32", "filters": 128, "kernel_size": [3, 3], "strides": [1, 1], "padding": "same", "data_format": "channels_last", "dilation_rate": [1, 1], "activation": "linear", "use_bias": false, "kernel_initializer": {"class_name": "VarianceScaling", "config": {"scale": 1.0, "mode": "fan_avg", "distribution": "uniform", "seed": null}}, "bias_initializer": {"class_name": "Zeros", "config": {}}, "kernel_regularizer": null, "bias_regularizer": null, "activity_regularizer": null, "kernel_constraint": null, "bias_constraint": null}, "inbound_nodes": [[["batch_normalization_124", 0, 0, {}]]]}, {"name": "batch_normalization_148", "class_name": "BatchNormalization", "config": {"name": "batch_normalization_148", "trainable": true, "dtype": "float32", "axis": 3, "momentum": 0.99, "epsilon": 0.001, "center": true, "scale": false, "beta_initializer": {"class_name": "Zeros", "config": {}}, "gamma_initializer": {"class_name": "Ones", "config": {}}, "moving_mean_initializer": {"class_name": "Zeros", "config": {}}, "moving_variance_initializer": {"class_name": "Ones", "config": {}}, "beta_regularizer": null, "gamma_regularizer": null, "beta_constraint": null, "gamma_constraint": null}, "inbound_nodes": [[["conv2d_100", 0, 0, {}]]]}, {"name": "conv2d_84", "class_name": "Conv2D", "config": {"name": "conv2d_84", "trainable": true, "dtype": "float32", "filters": 128, "kernel_size": [1, 1], "strides": [1, 1], "padding": "same", "data_format": "channels_last", "dilation_rate": [1, 1], "activation": "linear", "use_bias": false, "kernel_initializer": {"class_name": "VarianceScaling", "config": {"scale": 1.0, "mode": "fan_avg", "distribution": "uniform", "seed": null}}, "bias_initializer": {"class_name": "Zeros", "config": {}}, "kernel_regularizer": null, "bias_regularizer": null, "activity_regularizer": null, "kernel_constraint": null, "bias_constraint": null}, "inbound_nodes": [[["batch_normalization_124", 0, 0, {}]]]}, {"name": "batch_normalization_126", "class_name": "BatchNormalization", "config": {"name": "batch_normalization_126", "trainable": true, "dtype": "float32", "axis": 3, "momentum": 0.99, "epsilon": 0.001, "center": true, "scale": false, "beta_initializer": {"class_name": "Zeros", "config": {}}, "gamma_initializer": {"class_name": "Ones", "config": {}}, "moving_mean_initializer": {"class_name": "Zeros", "config": {}}, "moving_variance_initializer": {"class_name": "Ones", "config": {}}, "beta_regularizer": null, "gamma_regularizer": null, "beta_constraint": null, "gamma_constraint": null}, "inbound_nodes": [[["conv2d_85", 0, 0, {}]]]}, {"name": "activation_99", "class_name": "Activation", "config": {"name": "activation_99", "trainable": true, "dtype": "float32", "activation": "relu"}, "inbound_nodes": [[["batch_normalization_148", 0, 0, {}]]]}, {"name": "batch_normalization_125", "class_name": "BatchNormalization", "config": {"name": "batch_normalization_125", "trainable": true, "dtype": "float32", "axis": 3, "momentum": 0.99, "epsilon": 0.001, "center": true, "scale": false, "beta_initializer": {"class_name": "Zeros", "config": {}}, "gamma_initializer": {"class_name": "Ones", "config": {}}, "moving_mean_initializer": {"class_name": "Zeros", "config": {}}, "moving_variance_initializer": {"class_name": "Ones", "config": {}}, "beta_regularizer": null, "gamma_regularizer": null, "beta_constraint": null, "gamma_constraint": null}, "inbound_nodes": [[["conv2d_84", 0, 0, {}]]]}, {"name": "activation_84", "class_name": "Activation", "config": {"name": "activation_84", "trainable": true, "dtype": "float32", "activation": "relu"}, "inbound_nodes": [[["batch_normalization_126", 0, 0, {}]]]}, {"name": "conv2d_101", "class_name": "Conv2D", "config": {"name": "conv2d_101", "trainable": true, "dtype": "float32", "filters": 213, "kernel_size": [3, 3], "strides": [1, 1], "padding": "same", "data_format": "channels_last", "dilation_rate": [1, 1], "activation": "linear", "use_bias": false, "kernel_initializer": {"class_name": "VarianceScaling", "config": {"scale": 1.0, "mode": "fan_avg", "distribution": "uniform", "seed": null}}, "bias_initializer": {"class_name": "Zeros", "config": {}}, "kernel_regularizer": null, "bias_regularizer": null, "activity_regularizer": null, "kernel_constraint": null, "bias_constraint": null}, "inbound_nodes": [[["activation_99", 0, 0, {}]]]}, {"name": "add_30", "class_name": "Add", "config": {"name": "add_30", "trainable": true, "dtype": "float32"}, "inbound_nodes": [[["batch_normalization_125", 0, 0, {}], ["activation_84", 0, 0, {}]]]}, {"name": "batch_normalization_149", "class_name": "BatchNormalization", "config": {"name": "batch_normalization_149", "trainable": true, "dtype": "float32", "axis": 3, "momentum": 0.99, "epsilon": 0.001, "center": true, "scale": false, "beta_initializer": {"class_name": "Zeros", "config": {}}, "gamma_initializer": {"class_name": "Ones", "config": {}}, "moving_mean_initializer": {"class_name": "Zeros", "config": {}}, "moving_variance_initializer": {"class_name": "Ones", "config": {}}, "beta_regularizer": null, "gamma_regularizer": null, "beta_constraint": null, "gamma_constraint": null}, "inbound_nodes": [[["conv2d_101", 0, 0, {}]]]}, {"name": "activation_85", "class_name": "Activation", "config": {"name": "activation_85", "trainable": true, "dtype": "float32", "activation": "relu"}, "inbound_nodes": [[["add_30", 0, 0, {}]]]}, {"name": "activation_100", "class_name": "Activation", "config": {"name": "activation_100", "trainable": true, "dtype": "float32", "activation": "relu"}, "inbound_nodes": [[["batch_normalization_149", 0, 0, {}]]]}, {"name": "batch_normalization_127", "class_name": "BatchNormalization", "config": {"name": "batch_normalization_127", "trainable": true, "dtype": "float32", "axis": 3, "momentum": 0.99, "epsilon": 0.001, "center": true, "scale": true, "beta_initializer": {"class_name": "Zeros", "config": {}}, "gamma_initializer": {"class_name": "Ones", "config": {}}, "moving_mean_initializer": {"class_name": "Zeros", "config": {}}, "moving_variance_initializer": {"class_name": "Ones", "config": {}}, "beta_regularizer": null, "gamma_regularizer": null, "beta_constraint": null, "gamma_constraint": null}, "inbound_nodes": [[["activation_85", 0, 0, {}]]]}, {"name": "conv2d_98", "class_name": "Conv2D", "config": {"name": "conv2d_98", "trainable": true, "dtype": "float32", "filters": 426, "kernel_size": [1, 1], "strides": [1, 1], "padding": "same", "data_format": "channels_last", "dilation_rate": [1, 1], "activation": "linear", "use_bias": false, "kernel_initializer": {"class_name": "VarianceScaling", "config": {"scale": 1.0, "mode": "fan_avg", "distribution": "uniform", "seed": null}}, "bias_initializer": {"class_name": "Zeros", "config": {}}, "kernel_regularizer": null, "bias_regularizer": null, "activity_regularizer": null, "kernel_constraint": null, "bias_constraint": null}, "inbound_nodes": [[["concatenate_19", 0, 0, {}]]]}, {"name": "concatenate_20", "class_name": "Concatenate", "config": {"name": "concatenate_20", "trainable": true, "dtype": "float32", "axis": 3}, "inbound_nodes": [[["activation_98", 0, 0, {}], ["activation_99", 0, 0, {}], ["activation_100", 0, 0, {}]]]}, {"name": "conv2d_87", "class_name": "Conv2D", "config": {"name": "conv2d_87", "trainable": true, "dtype": "float32", "filters": 128, "kernel_size": [3, 3], "strides": [1, 1], "padding": "same", "data_format": "channels_last", "dilation_rate": [1, 1], "activation": "linear", "use_bias": false, "kernel_initializer": {"class_name": "VarianceScaling", "config": {"scale": 1.0, "mode": "fan_avg", "distribution": "uniform", "seed": null}}, "bias_initializer": {"class_name": "Zeros", "config": {}}, "kernel_regularizer": null, "bias_regularizer": null, "activity_regularizer": null, "kernel_constraint": null, "bias_constraint": null}, "inbound_nodes": [[["batch_normalization_127", 0, 0, {}]]]}, {"name": "batch_normalization_146", "class_name": "BatchNormalization", "config": {"name": "batch_normalization_146", "trainable": true, "dtype": "float32", "axis": 3, "momentum": 0.99, "epsilon": 0.001, "center": true, "scale": false, "beta_initializer": {"class_name": "Zeros", "config": {}}, "gamma_initializer": {"class_name": "Ones", "config": {}}, "moving_mean_initializer": {"class_name": "Zeros", "config": {}}, "moving_variance_initializer": {"class_name": "Ones", "config": {}}, "beta_regularizer": null, "gamma_regularizer": null, "beta_constraint": null, "gamma_constraint": null}, "inbound_nodes": [[["conv2d_98", 0, 0, {}]]]}, {"name": "batch_normalization_150", "class_name": "BatchNormalization", "config": {"name": "batch_normalization_150", "trainable": true, "dtype": "float32", "axis": 3, "momentum": 0.99, "epsilon": 0.001, "center": true, "scale": true, "beta_initializer": {"class_name": "Zeros", "config": {}}, "gamma_initializer": {"class_name": "Ones", "config": {}}, "moving_mean_initializer": {"class_name": "Zeros", "config": {}}, "moving_variance_initializer": {"class_name": "Ones", "config": {}}, "beta_regularizer": null, "gamma_regularizer": null, "beta_constraint": null, "gamma_constraint": null}, "inbound_nodes": [[["concatenate_20", 0, 0, {}]]]}, {"name": "conv2d_86", "class_name": "Conv2D", "config": {"name": "conv2d_86", "trainable": true, "dtype": "float32", "filters": 128, "kernel_size": [1, 1], "strides": [1, 1], "padding": "same", "data_format": "channels_last", "dilation_rate": [1, 1], "activation": "linear", "use_bias": false, "kernel_initializer": {"class_name": "VarianceScaling", "config": {"scale": 1.0, "mode": "fan_avg", "distribution": "uniform", "seed": null}}, "bias_initializer": {"class_name": "Zeros", "config": {}}, "kernel_regularizer": null, "bias_regularizer": null, "activity_regularizer": null, "kernel_constraint": null, "bias_constraint": null}, "inbound_nodes": [[["batch_normalization_127", 0, 0, {}]]]}, {"name": "batch_normalization_129", "class_name": "BatchNormalization", "config": {"name": "batch_normalization_129", "trainable": true, "dtype": "float32", "axis": 3, "momentum": 0.99, "epsilon": 0.001, "center": true, "scale": false, "beta_initializer": {"class_name": "Zeros", "config": {}}, "gamma_initializer": {"class_name": "Ones", "config": {}}, "moving_mean_initializer": {"class_name": "Zeros", "config": {}}, "moving_variance_initializer": {"class_name": "Ones", "config": {}}, "beta_regularizer": null, "gamma_regularizer": null, "beta_constraint": null, "gamma_constraint": null}, "inbound_nodes": [[["conv2d_87", 0, 0, {}]]]}, {"name": "add_35", "class_name": "Add", "config": {"name": "add_35", "trainable": true, "dtype": "float32"}, "inbound_nodes": [[["batch_normalization_146", 0, 0, {}], ["batch_normalization_150", 0, 0, {}]]]}, {"name": "batch_normalization_128", "class_name": "BatchNormalization", "config": {"name": "batch_normalization_128", "trainable": true, "dtype": "float32", "axis": 3, "momentum": 0.99, "epsilon": 0.001, "center": true, "scale": false, "beta_initializer": {"class_name": "Zeros", "config": {}}, "gamma_initializer": {"class_name": "Ones", "config": {}}, "moving_mean_initializer": {"class_name": "Zeros", "config": {}}, "moving_variance_initializer": {"class_name": "Ones", "config": {}}, "beta_regularizer": null, "gamma_regularizer": null, "beta_constraint": null, "gamma_constraint": null}, "inbound_nodes": [[["conv2d_86", 0, 0, {}]]]}, {"name": "activation_86", "class_name": "Activation", "config": {"name": "activation_86", "trainable": true, "dtype": "float32", "activation": "relu"}, "inbound_nodes": [[["batch_normalization_129", 0, 0, {}]]]}, {"name": "activation_101", "class_name": "Activation", "config": {"name": "activation_101", "trainable": true, "dtype": "float32", "activation": "relu"}, "inbound_nodes": [[["add_35", 0, 0, {}]]]}, {"name": "add_31", "class_name": "Add", "config": {"name": "add_31", "trainable": true, "dtype": "float32"}, "inbound_nodes": [[["batch_normalization_128", 0, 0, {}], ["activation_86", 0, 0, {}]]]}, {"name": "batch_normalization_151", "class_name": "BatchNormalization", "config": {"name": "batch_normalization_151", "trainable": true, "dtype": "float32", "axis": 3, "momentum": 0.99, "epsilon": 0.001, "center": true, "scale": true, "beta_initializer": {"class_name": "Zeros", "config": {}}, "gamma_initializer": {"class_name": "Ones", "config": {}}, "moving_mean_initializer": {"class_name": "Zeros", "config": {}}, "moving_variance_initializer": {"class_name": "Ones", "config": {}}, "beta_regularizer": null, "gamma_regularizer": null, "beta_constraint": null, "gamma_constraint": null}, "inbound_nodes": [[["activation_101", 0, 0, {}]]]}, {"name": "activation_87", "class_name": "Activation", "config": {"name": "activation_87", "trainable": true, "dtype": "float32", "activation": "relu"}, "inbound_nodes": [[["add_31", 0, 0, {}]]]}, {"name": "conv2d_75", "class_name": "Conv2D", "config": {"name": "conv2d_75", "trainable": true, "dtype": "float32", "filters": 64, "kernel_size": [3, 3], "strides": [1, 1], "padding": "same", "data_format": "channels_last", "dilation_rate": [1, 1], "activation": "linear", "use_bias": false, "kernel_initializer": {"class_name": "VarianceScaling", "config": {"scale": 1.0, "mode": "fan_avg", "distribution": "uniform", "seed": null}}, "bias_initializer": {"class_name": "Zeros", "config": {}}, "kernel_regularizer": null, "bias_regularizer": null, "activity_regularizer": null, "kernel_constraint": null, "bias_constraint": null}, "inbound_nodes": [[["batch_normalization_109", 0, 0, {}]]]}, {"name": "conv2d_transpose_6", "class_name": "Conv2DTranspose", "config": {"name": "conv2d_transpose_6", "trainable": true, "dtype": "float32", "filters": 128, "kernel_size": [2, 2], "strides": [2, 2], "padding": "same", "data_format": "channels_last", "dilation_rate": [1, 1], "activation": "linear", "use_bias": true, "kernel_initializer": {"class_name": "VarianceScaling", "config": {"scale": 1.0, "mode": "fan_avg", "distribution": "uniform", "seed": null}}, "bias_initializer": {"class_name": "Zeros", "config": {}}, "kernel_regularizer": null, "bias_regularizer": null, "activity_regularizer": null, "kernel_constraint": null, "bias_constraint": null, "output_padding": null}, "inbound_nodes": [[["batch_normalization_151", 0, 0, {}]]]}, {"name": "batch_normalization_130", "class_name": "BatchNormalization", "config": {"name": "batch_normalization_130", "trainable": true, "dtype": "float32", "axis": 3, "momentum": 0.99, "epsilon": 0.001, "center": true, "scale": true, "beta_initializer": {"class_name": "Zeros", "config": {}}, "gamma_initializer": {"class_name": "Ones", "config": {}}, "moving_mean_initializer": {"class_name": "Zeros", "config": {}}, "moving_variance_initializer": {"class_name": "Ones", "config": {}}, "beta_regularizer": null, "gamma_regularizer": null, "beta_constraint": null, "gamma_constraint": null}, "inbound_nodes": [[["activation_87", 0, 0, {}]]]}, {"name": "conv2d_74", "class_name": "Conv2D", "config": {"name": "conv2d_74", "trainable": true, "dtype": "float32", "filters": 64, "kernel_size": [1, 1], "strides": [1, 1], "padding": "same", "data_format": "channels_last", "dilation_rate": [1, 1], "activation": "linear", "use_bias": false, "kernel_initializer": {"class_name": "VarianceScaling", "config": {"scale": 1.0, "mode": "fan_avg", "distribution": "uniform", "seed": null}}, "bias_initializer": {"class_name": "Zeros", "config": {}}, "kernel_regularizer": null, "bias_regularizer": null, "activity_regularizer": null, "kernel_constraint": null, "bias_constraint": null}, "inbound_nodes": [[["batch_normalization_109", 0, 0, {}]]]}, {"name": "batch_normalization_111", "class_name": "BatchNormalization", "config": {"name": "batch_normalization_111", "trainable": true, "dtype": "float32", "axis": 3, "momentum": 0.99, "epsilon": 0.001, "center": true, "scale": false, "beta_initializer": {"class_name": "Zeros", "config": {}}, "gamma_initializer": {"class_name": "Ones", "config": {}}, "moving_mean_initializer": {"class_name": "Zeros", "config": {}}, "moving_variance_initializer": {"class_name": "Ones", "config": {}}, "beta_regularizer": null, "gamma_regularizer": null, "beta_constraint": null, "gamma_constraint": null}, "inbound_nodes": [[["conv2d_75", 0, 0, {}]]]}, {"name": "concatenate_21", "class_name": "Concatenate", "config": {"name": "concatenate_21", "trainable": true, "dtype": "float32", "axis": 3}, "inbound_nodes": [[["conv2d_transpose_6", 0, 0, {}], ["batch_normalization_130", 0, 0, {}]]]}, {"name": "batch_normalization_110", "class_name": "BatchNormalization", "config": {"name": "batch_normalization_110", "trainable": true, "dtype": "float32", "axis": 3, "momentum": 0.99, "epsilon": 0.001, "center": true, "scale": false, "beta_initializer": {"class_name": "Zeros", "config": {}}, "gamma_initializer": {"class_name": "Ones", "config": {}}, "moving_mean_initializer": {"class_name": "Zeros", "config": {}}, "moving_variance_initializer": {"class_name": "Ones", "config": {}}, "beta_regularizer": null, "gamma_regularizer": null, "beta_constraint": null, "gamma_constraint": null}, "inbound_nodes": [[["conv2d_74", 0, 0, {}]]]}, {"name": "activation_74", "class_name": "Activation", "config": {"name": "activation_74", "trainable": true, "dtype": "float32", "activation": "relu"}, "inbound_nodes": [[["batch_normalization_111", 0, 0, {}]]]}, {"name": "conv2d_103", "class_name": "Conv2D", "config": {"name": "conv2d_103", "trainable": true, "dtype": "float32", "filters": 35, "kernel_size": [3, 3], "strides": [1, 1], "padding": "same", "data_format": "channels_last", "dilation_rate": [1, 1], "activation": "linear", "use_bias": false, "kernel_initializer": {"class_name": "VarianceScaling", "config": {"scale": 1.0, "mode": "fan_avg", "distribution": "uniform", "seed": null}}, "bias_initializer": {"class_name": "Zeros", "config": {}}, "kernel_regularizer": null, "bias_regularizer": null, "activity_regularizer": null, "kernel_constraint": null, "bias_constraint": null}, "inbound_nodes": [[["concatenate_21", 0, 0, {}]]]}, {"name": "add_26", "class_name": "Add", "config": {"name": "add_26", "trainable": true, "dtype": "float32"}, "inbound_nodes": [[["batch_normalization_110", 0, 0, {}], ["activation_74", 0, 0, {}]]]}, {"name": "batch_normalization_153", "class_name": "BatchNormalization", "config": {"name": "batch_normalization_153", "trainable": true, "dtype": "float32", "axis": 3, "momentum": 0.99, "epsilon": 0.001, "center": true, "scale": false, "beta_initializer": {"class_name": "Zeros", "config": {}}, "gamma_initializer": {"class_name": "Ones", "config": {}}, "moving_mean_initializer": {"class_name": "Zeros", "config": {}}, "moving_variance_initializer": {"class_name": "Ones", "config": {}}, "beta_regularizer": null, "gamma_regularizer": null, "beta_constraint": null, "gamma_constraint": null}, "inbound_nodes": [[["conv2d_103", 0, 0, {}]]]}, {"name": "activation_75", "class_name": "Activation", "config": {"name": "activation_75", "trainable": true, "dtype": "float32", "activation": "relu"}, "inbound_nodes": [[["add_26", 0, 0, {}]]]}, {"name": "activation_102", "class_name": "Activation", "config": {"name": "activation_102", "trainable": true, "dtype": "float32", "activation": "relu"}, "inbound_nodes": [[["batch_normalization_153", 0, 0, {}]]]}, {"name": "batch_normalization_112", "class_name": "BatchNormalization", "config": {"name": "batch_normalization_112", "trainable": true, "dtype": "float32", "axis": 3, "momentum": 0.99, "epsilon": 0.001, "center": true, "scale": true, "beta_initializer": {"class_name": "Zeros", "config": {}}, "gamma_initializer": {"class_name": "Ones", "config": {}}, "moving_mean_initializer": {"class_name": "Zeros", "config": {}}, "moving_variance_initializer": {"class_name": "Ones", "config": {}}, "beta_regularizer": null, "gamma_regularizer": null, "beta_constraint": null, "gamma_constraint": null}, "inbound_nodes": [[["activation_75", 0, 0, {}]]]}, {"name": "conv2d_104", "class_name": "Conv2D", "config": {"name": "conv2d_104", "trainable": true, "dtype": "float32", "filters": 71, "kernel_size": [3, 3], "strides": [1, 1], "padding": "same", "data_format": "channels_last", "dilation_rate": [1, 1], "activation": "linear", "use_bias": false, "kernel_initializer": {"class_name": "VarianceScaling", "config": {"scale": 1.0, "mode": "fan_avg", "distribution": "uniform", "seed": null}}, "bias_initializer": {"class_name": "Zeros", "config": {}}, "kernel_regularizer": null, "bias_regularizer": null, "activity_regularizer": null, "kernel_constraint": null, "bias_constraint": null}, "inbound_nodes": [[["activation_102", 0, 0, {}]]]}, {"name": "conv2d_77", "class_name": "Conv2D", "config": {"name": "conv2d_77", "trainable": true, "dtype": "float32", "filters": 64, "kernel_size": [3, 3], "strides": [1, 1], "padding": "same", "data_format": "channels_last", "dilation_rate": [1, 1], "activation": "linear", "use_bias": false, "kernel_initializer": {"class_name": "VarianceScaling", "config": {"scale": 1.0, "mode": "fan_avg", "distribution": "uniform", "seed": null}}, "bias_initializer": {"class_name": "Zeros", "config": {}}, "kernel_regularizer": null, "bias_regularizer": null, "activity_regularizer": null, "kernel_constraint": null, "bias_constraint": null}, "inbound_nodes": [[["batch_normalization_112", 0, 0, {}]]]}, {"name": "batch_normalization_154", "class_name": "BatchNormalization", "config": {"name": "batch_normalization_154", "trainable": true, "dtype": "float32", "axis": 3, "momentum": 0.99, "epsilon": 0.001, "center": true, "scale": false, "beta_initializer": {"class_name": "Zeros", "config": {}}, "gamma_initializer": {"class_name": "Ones", "config": {}}, "moving_mean_initializer": {"class_name": "Zeros", "config": {}}, "moving_variance_initializer": {"class_name": "Ones", "config": {}}, "beta_regularizer": null, "gamma_regularizer": null, "beta_constraint": null, "gamma_constraint": null}, "inbound_nodes": [[["conv2d_104", 0, 0, {}]]]}, {"name": "conv2d_76", "class_name": "Conv2D", "config": {"name": "conv2d_76", "trainable": true, "dtype": "float32", "filters": 64, "kernel_size": [1, 1], "strides": [1, 1], "padding": "same", "data_format": "channels_last", "dilation_rate": [1, 1], "activation": "linear", "use_bias": false, "kernel_initializer": {"class_name": "VarianceScaling", "config": {"scale": 1.0, "mode": "fan_avg", "distribution": "uniform", "seed": null}}, "bias_initializer": {"class_name": "Zeros", "config": {}}, "kernel_regularizer": null, "bias_regularizer": null, "activity_regularizer": null, "kernel_constraint": null, "bias_constraint": null}, "inbound_nodes": [[["batch_normalization_112", 0, 0, {}]]]}, {"name": "batch_normalization_114", "class_name": "BatchNormalization", "config": {"name": "batch_normalization_114", "trainable": true, "dtype": "float32", "axis": 3, "momentum": 0.99, "epsilon": 0.001, "center": true, "scale": false, "beta_initializer": {"class_name": "Zeros", "config": {}}, "gamma_initializer": {"class_name": "Ones", "config": {}}, "moving_mean_initializer": {"class_name": "Zeros", "config": {}}, "moving_variance_initializer": {"class_name": "Ones", "config": {}}, "beta_regularizer": null, "gamma_regularizer": null, "beta_constraint": null, "gamma_constraint": null}, "inbound_nodes": [[["conv2d_77", 0, 0, {}]]]}, {"name": "activation_103", "class_name": "Activation", "config": {"name": "activation_103", "trainable": true, "dtype": "float32", "activation": "relu"}, "inbound_nodes": [[["batch_normalization_154", 0, 0, {}]]]}, {"name": "batch_normalization_113", "class_name": "BatchNormalization", "config": {"name": "batch_normalization_113", "trainable": true, "dtype": "float32", "axis": 3, "momentum": 0.99, "epsilon": 0.001, "center": true, "scale": false, "beta_initializer": {"class_name": "Zeros", "config": {}}, "gamma_initializer": {"class_name": "Ones", "config": {}}, "moving_mean_initializer": {"class_name": "Zeros", "config": {}}, "moving_variance_initializer": {"class_name": "Ones", "config": {}}, "beta_regularizer": null, "gamma_regularizer": null, "beta_constraint": null, "gamma_constraint": null}, "inbound_nodes": [[["conv2d_76", 0, 0, {}]]]}, {"name": "activation_76", "class_name": "Activation", "config": {"name": "activation_76", "trainable": true, "dtype": "float32", "activation": "relu"}, "inbound_nodes": [[["batch_normalization_114", 0, 0, {}]]]}, {"name": "conv2d_105", "class_name": "Conv2D", "config": {"name": "conv2d_105", "trainable": true, "dtype": "float32", "filters": 106, "kernel_size": [3, 3], "strides": [1, 1], "padding": "same", "data_format": "channels_last", "dilation_rate": [1, 1], "activation": "linear", "use_bias": false, "kernel_initializer": {"class_name": "VarianceScaling", "config": {"scale": 1.0, "mode": "fan_avg", "distribution": "uniform", "seed": null}}, "bias_initializer": {"class_name": "Zeros", "config": {}}, "kernel_regularizer": null, "bias_regularizer": null, "activity_regularizer": null, "kernel_constraint": null, "bias_constraint": null}, "inbound_nodes": [[["activation_103", 0, 0, {}]]]}, {"name": "add_27", "class_name": "Add", "config": {"name": "add_27", "trainable": true, "dtype": "float32"}, "inbound_nodes": [[["batch_normalization_113", 0, 0, {}], ["activation_76", 0, 0, {}]]]}, {"name": "batch_normalization_155", "class_name": "BatchNormalization", "config": {"name": "batch_normalization_155", "trainable": true, "dtype": "float32", "axis": 3, "momentum": 0.99, "epsilon": 0.001, "center": true, "scale": false, "beta_initializer": {"class_name": "Zeros", "config": {}}, "gamma_initializer": {"class_name": "Ones", "config": {}}, "moving_mean_initializer": {"class_name": "Zeros", "config": {}}, "moving_variance_initializer": {"class_name": "Ones", "config": {}}, "beta_regularizer": null, "gamma_regularizer": null, "beta_constraint": null, "gamma_constraint": null}, "inbound_nodes": [[["conv2d_105", 0, 0, {}]]]}, {"name": "activation_77", "class_name": "Activation", "config": {"name": "activation_77", "trainable": true, "dtype": "float32", "activation": "relu"}, "inbound_nodes": [[["add_27", 0, 0, {}]]]}, {"name": "conv2d_63", "class_name": "Conv2D", "config": {"name": "conv2d_63", "trainable": true, "dtype": "float32", "filters": 32, "kernel_size": [3, 3], "strides": [1, 1], "padding": "same", "data_format": "channels_last", "dilation_rate": [1, 1], "activation": "linear", "use_bias": false, "kernel_initializer": {"class_name": "VarianceScaling", "config": {"scale": 1.0, "mode": "fan_avg", "distribution": "uniform", "seed": null}}, "bias_initializer": {"class_name": "Zeros", "config": {}}, "kernel_regularizer": null, "bias_regularizer": null, "activity_regularizer": null, "kernel_constraint": null, "bias_constraint": null}, "inbound_nodes": [[["batch_normalization_91", 0, 0, {}]]]}, {"name": "activation_104", "class_name": "Activation", "config": {"name": "activation_104", "trainable": true, "dtype": "float32", "activation": "relu"}, "inbound_nodes": [[["batch_normalization_155", 0, 0, {}]]]}, {"name": "batch_normalization_115", "class_name": "BatchNormalization", "config": {"name": "batch_normalization_115", "trainable": true, "dtype": "float32", "axis": 3, "momentum": 0.99, "epsilon": 0.001, "center": true, "scale": true, "beta_initializer": {"class_name": "Zeros", "config": {}}, "gamma_initializer": {"class_name": "Ones", "config": {}}, "moving_mean_initializer": {"class_name": "Zeros", "config": {}}, "moving_variance_initializer": {"class_name": "Ones", "config": {}}, "beta_regularizer": null, "gamma_regularizer": null, "beta_constraint": null, "gamma_constraint": null}, "inbound_nodes": [[["activation_77", 0, 0, {}]]]}, {"name": "conv2d_62", "class_name": "Conv2D", "config": {"name": "conv2d_62", "trainable": true, "dtype": "float32", "filters": 32, "kernel_size": [1, 1], "strides": [1, 1], "padding": "same", "data_format": "channels_last", "dilation_rate": [1, 1], "activation": "linear", "use_bias": false, "kernel_initializer": {"class_name": "VarianceScaling", "config": {"scale": 1.0, "mode": "fan_avg", "distribution": "uniform", "seed": null}}, "bias_initializer": {"class_name": "Zeros", "config": {}}, "kernel_regularizer": null, "bias_regularizer": null, "activity_regularizer": null, "kernel_constraint": null, "bias_constraint": null}, "inbound_nodes": [[["batch_normalization_91", 0, 0, {}]]]}, {"name": "batch_normalization_93", "class_name": "BatchNormalization", "config": {"name": "batch_normalization_93", "trainable": true, "dtype": "float32", "axis": 3, "momentum": 0.99, "epsilon": 0.001, "center": true, "scale": false, "beta_initializer": {"class_name": "Zeros", "config": {}}, "gamma_initializer": {"class_name": "Ones", "config": {}}, "moving_mean_initializer": {"class_name": "Zeros", "config": {}}, "moving_variance_initializer": {"class_name": "Ones", "config": {}}, "beta_regularizer": null, "gamma_regularizer": null, "beta_constraint": null, "gamma_constraint": null}, "inbound_nodes": [[["conv2d_63", 0, 0, {}]]]}, {"name": "conv2d_102", "class_name": "Conv2D", "config": {"name": "conv2d_102", "trainable": true, "dtype": "float32", "filters": 212, "kernel_size": [1, 1], "strides": [1, 1], "padding": "same", "data_format": "channels_last", "dilation_rate": [1, 1], "activation": "linear", "use_bias": false, "kernel_initializer": {"class_name": "VarianceScaling", "config": {"scale": 1.0, "mode": "fan_avg", "distribution": "uniform", "seed": null}}, "bias_initializer": {"class_name": "Zeros", "config": {}}, "kernel_regularizer": null, "bias_regularizer": null, "activity_regularizer": null, "kernel_constraint": null, "bias_constraint": null}, "inbound_nodes": [[["concatenate_21", 0, 0, {}]]]}, {"name": "concatenate_22", "class_name": "Concatenate", "config": {"name": "concatenate_22", "trainable": true, "dtype": "float32", "axis": 3}, "inbound_nodes": [[["activation_102", 0, 0, {}], ["activation_103", 0, 0, {}], ["activation_104", 0, 0, {}]]]}, {"name": "conv2d_79", "class_name": "Conv2D", "config": {"name": "conv2d_79", "trainable": true, "dtype": "float32", "filters": 64, "kernel_size": [3, 3], "strides": [1, 1], "padding": "same", "data_format": "channels_last", "dilation_rate": [1, 1], "activation": "linear", "use_bias": false, "kernel_initializer": {"class_name": "VarianceScaling", "config": {"scale": 1.0, "mode": "fan_avg", "distribution": "uniform", "seed": null}}, "bias_initializer": {"class_name": "Zeros", "config": {}}, "kernel_regularizer": null, "bias_regularizer": null, "activity_regularizer": null, "kernel_constraint": null, "bias_constraint": null}, "inbound_nodes": [[["batch_normalization_115", 0, 0, {}]]]}, {"name": "batch_normalization_92", "class_name": "BatchNormalization", "config": {"name": "batch_normalization_92", "trainable": true, "dtype": "float32", "axis": 3, "momentum": 0.99, "epsilon": 0.001, "center": true, "scale": false, "beta_initializer": {"class_name": "Zeros", "config": {}}, "gamma_initializer": {"class_name": "Ones", "config": {}}, "moving_mean_initializer": {"class_name": "Zeros", "config": {}}, "moving_variance_initializer": {"class_name": "Ones", "config": {}}, "beta_regularizer": null, "gamma_regularizer": null, "beta_constraint": null, "gamma_constraint": null}, "inbound_nodes": [[["conv2d_62", 0, 0, {}]]]}, {"name": "activation_62", "class_name": "Activation", "config": {"name": "activation_62", "trainable": true, "dtype": "float32", "activation": "relu"}, "inbound_nodes": [[["batch_normalization_93", 0, 0, {}]]]}, {"name": "batch_normalization_152", "class_name": "BatchNormalization", "config": {"name": "batch_normalization_152", "trainable": true, "dtype": "float32", "axis": 3, "momentum": 0.99, "epsilon": 0.001, "center": true, "scale": false, "beta_initializer": {"class_name": "Zeros", "config": {}}, "gamma_initializer": {"class_name": "Ones", "config": {}}, "moving_mean_initializer": {"class_name": "Zeros", "config": {}}, "moving_variance_initializer": {"class_name": "Ones", "config": {}}, "beta_regularizer": null, "gamma_regularizer": null, "beta_constraint": null, "gamma_constraint": null}, "inbound_nodes": [[["conv2d_102", 0, 0, {}]]]}, {"name": "batch_normalization_156", "class_name": "BatchNormalization", "config": {"name": "batch_normalization_156", "trainable": true, "dtype": "float32", "axis": 3, "momentum": 0.99, "epsilon": 0.001, "center": true, "scale": true, "beta_initializer": {"class_name": "Zeros", "config": {}}, "gamma_initializer": {"class_name": "Ones", "config": {}}, "moving_mean_initializer": {"class_name": "Zeros", "config": {}}, "moving_variance_initializer": {"class_name": "Ones", "config": {}}, "beta_regularizer": null, "gamma_regularizer": null, "beta_constraint": null, "gamma_constraint": null}, "inbound_nodes": [[["concatenate_22", 0, 0, {}]]]}, {"name": "conv2d_78", "class_name": "Conv2D", "config": {"name": "conv2d_78", "trainable": true, "dtype": "float32", "filters": 64, "kernel_size": [1, 1], "strides": [1, 1], "padding": "same", "data_format": "channels_last", "dilation_rate": [1, 1], "activation": "linear", "use_bias": false, "kernel_initializer": {"class_name": "VarianceScaling", "config": {"scale": 1.0, "mode": "fan_avg", "distribution": "uniform", "seed": null}}, "bias_initializer": {"class_name": "Zeros", "config": {}}, "kernel_regularizer": null, "bias_regularizer": null, "activity_regularizer": null, "kernel_constraint": null, "bias_constraint": null}, "inbound_nodes": [[["batch_normalization_115", 0, 0, {}]]]}, {"name": "batch_normalization_117", "class_name": "BatchNormalization", "config": {"name": "batch_normalization_117", "trainable": true, "dtype": "float32", "axis": 3, "momentum": 0.99, "epsilon": 0.001, "center": true, "scale": false, "beta_initializer": {"class_name": "Zeros", "config": {}}, "gamma_initializer": {"class_name": "Ones", "config": {}}, "moving_mean_initializer": {"class_name": "Zeros", "config": {}}, "moving_variance_initializer": {"class_name": "Ones", "config": {}}, "beta_regularizer": null, "gamma_regularizer": null, "beta_constraint": null, "gamma_constraint": null}, "inbound_nodes": [[["conv2d_79", 0, 0, {}]]]}, {"name": "add_21", "class_name": "Add", "config": {"name": "add_21", "trainable": true, "dtype": "float32"}, "inbound_nodes": [[["batch_normalization_92", 0, 0, {}], ["activation_62", 0, 0, {}]]]}, {"name": "add_36", "class_name": "Add", "config": {"name": "add_36", "trainable": true, "dtype": "float32"}, "inbound_nodes": [[["batch_normalization_152", 0, 0, {}], ["batch_normalization_156", 0, 0, {}]]]}, {"name": "batch_normalization_116", "class_name": "BatchNormalization", "config": {"name": "batch_normalization_116", "trainable": true, "dtype": "float32", "axis": 3, "momentum": 0.99, "epsilon": 0.001, "center": true, "scale": false, "beta_initializer": {"class_name": "Zeros", "config": {}}, "gamma_initializer": {"class_name": "Ones", "config": {}}, "moving_mean_initializer": {"class_name": "Zeros", "config": {}}, "moving_variance_initializer": {"class_name": "Ones", "config": {}}, "beta_regularizer": null, "gamma_regularizer": null, "beta_constraint": null, "gamma_constraint": null}, "inbound_nodes": [[["conv2d_78", 0, 0, {}]]]}, {"name": "activation_78", "class_name": "Activation", "config": {"name": "activation_78", "trainable": true, "dtype": "float32", "activation": "relu"}, "inbound_nodes": [[["batch_normalization_117", 0, 0, {}]]]}, {"name": "activation_63", "class_name": "Activation", "config": {"name": "activation_63", "trainable": true, "dtype": "float32", "activation": "relu"}, "inbound_nodes": [[["add_21", 0, 0, {}]]]}, {"name": "activation_105", "class_name": "Activation", "config": {"name": "activation_105", "trainable": true, "dtype": "float32", "activation": "relu"}, "inbound_nodes": [[["add_36", 0, 0, {}]]]}, {"name": "add_28", "class_name": "Add", "config": {"name": "add_28", "trainable": true, "dtype": "float32"}, "inbound_nodes": [[["batch_normalization_116", 0, 0, {}], ["activation_78", 0, 0, {}]]]}, {"name": "batch_normalization_94", "class_name": "BatchNormalization", "config": {"name": "batch_normalization_94", "trainable": true, "dtype": "float32", "axis": 3, "momentum": 0.99, "epsilon": 0.001, "center": true, "scale": true, "beta_initializer": {"class_name": "Zeros", "config": {}}, "gamma_initializer": {"class_name": "Ones", "config": {}}, "moving_mean_initializer": {"class_name": "Zeros", "config": {}}, "moving_variance_initializer": {"class_name": "Ones", "config": {}}, "beta_regularizer": null, "gamma_regularizer": null, "beta_constraint": null, "gamma_constraint": null}, "inbound_nodes": [[["activation_63", 0, 0, {}]]]}, {"name": "batch_normalization_157", "class_name": "BatchNormalization", "config": {"name": "batch_normalization_157", "trainable": true, "dtype": "float32", "axis": 3, "momentum": 0.99, "epsilon": 0.001, "center": true, "scale": true, "beta_initializer": {"class_name": "Zeros", "config": {}}, "gamma_initializer": {"class_name": "Ones", "config": {}}, "moving_mean_initializer": {"class_name": "Zeros", "config": {}}, "moving_variance_initializer": {"class_name": "Ones", "config": {}}, "beta_regularizer": null, "gamma_regularizer": null, "beta_constraint": null, "gamma_constraint": null}, "inbound_nodes": [[["activation_105", 0, 0, {}]]]}, {"name": "activation_79", "class_name": "Activation", "config": {"name": "activation_79", "trainable": true, "dtype": "float32", "activation": "relu"}, "inbound_nodes": [[["add_28", 0, 0, {}]]]}, {"name": "conv2d_65", "class_name": "Conv2D", "config": {"name": "conv2d_65", "trainable": true, "dtype": "float32", "filters": 32, "kernel_size": [3, 3], "strides": [1, 1], "padding": "same", "data_format": "channels_last", "dilation_rate": [1, 1], "activation": "linear", "use_bias": false, "kernel_initializer": {"class_name": "VarianceScaling", "config": {"scale": 1.0, "mode": "fan_avg", "distribution": "uniform", "seed": null}}, "bias_initializer": {"class_name": "Zeros", "config": {}}, "kernel_regularizer": null, "bias_regularizer": null, "activity_regularizer": null, "kernel_constraint": null, "bias_constraint": null}, "inbound_nodes": [[["batch_normalization_94", 0, 0, {}]]]}, {"name": "conv2d_transpose_7", "class_name": "Conv2DTranspose", "config": {"name": "conv2d_transpose_7", "trainable": true, "dtype": "float32", "filters": 64, "kernel_size": [2, 2], "strides": [2, 2], "padding": "same", "data_format": "channels_last", "dilation_rate": [1, 1], "activation": "linear", "use_bias": true, "kernel_initializer": {"class_name": "VarianceScaling", "config": {"scale": 1.0, "mode": "fan_avg", "distribution": "uniform", "seed": null}}, "bias_initializer": {"class_name": "Zeros", "config": {}}, "kernel_regularizer": null, "bias_regularizer": null, "activity_regularizer": null, "kernel_constraint": null, "bias_constraint": null, "output_padding": null}, "inbound_nodes": [[["batch_normalization_157", 0, 0, {}]]]}, {"name": "batch_normalization_118", "class_name": "BatchNormalization", "config": {"name": "batch_normalization_118", "trainable": true, "dtype": "float32", "axis": 3, "momentum": 0.99, "epsilon": 0.001, "center": true, "scale": true, "beta_initializer": {"class_name": "Zeros", "config": {}}, "gamma_initializer": {"class_name": "Ones", "config": {}}, "moving_mean_initializer": {"class_name": "Zeros", "config": {}}, "moving_variance_initializer": {"class_name": "Ones", "config": {}}, "beta_regularizer": null, "gamma_regularizer": null, "beta_constraint": null, "gamma_constraint": null}, "inbound_nodes": [[["activation_79", 0, 0, {}]]]}, {"name": "conv2d_64", "class_name": "Conv2D", "config": {"name": "conv2d_64", "trainable": true, "dtype": "float32", "filters": 32, "kernel_size": [1, 1], "strides": [1, 1], "padding": "same", "data_format": "channels_last", "dilation_rate": [1, 1], "activation": "linear", "use_bias": false, "kernel_initializer": {"class_name": "VarianceScaling", "config": {"scale": 1.0, "mode": "fan_avg", "distribution": "uniform", "seed": null}}, "bias_initializer": {"class_name": "Zeros", "config": {}}, "kernel_regularizer": null, "bias_regularizer": null, "activity_regularizer": null, "kernel_constraint": null, "bias_constraint": null}, "inbound_nodes": [[["batch_normalization_94", 0, 0, {}]]]}, {"name": "batch_normalization_96", "class_name": "BatchNormalization", "config": {"name": "batch_normalization_96", "trainable": true, "dtype": "float32", "axis": 3, "momentum": 0.99, "epsilon": 0.001, "center": true, "scale": false, "beta_initializer": {"class_name": "Zeros", "config": {}}, "gamma_initializer": {"class_name": "Ones", "config": {}}, "moving_mean_initializer": {"class_name": "Zeros", "config": {}}, "moving_variance_initializer": {"class_name": "Ones", "config": {}}, "beta_regularizer": null, "gamma_regularizer": null, "beta_constraint": null, "gamma_constraint": null}, "inbound_nodes": [[["conv2d_65", 0, 0, {}]]]}, {"name": "concatenate_23", "class_name": "Concatenate", "config": {"name": "concatenate_23", "trainable": true, "dtype": "float32", "axis": 3}, "inbound_nodes": [[["conv2d_transpose_7", 0, 0, {}], ["batch_normalization_118", 0, 0, {}]]]}, {"name": "batch_normalization_95", "class_name": "BatchNormalization", "config": {"name": "batch_normalization_95", "trainable": true, "dtype": "float32", "axis": 3, "momentum": 0.99, "epsilon": 0.001, "center": true, "scale": false, "beta_initializer": {"class_name": "Zeros", "config": {}}, "gamma_initializer": {"class_name": "Ones", "config": {}}, "moving_mean_initializer": {"class_name": "Zeros", "config": {}}, "moving_variance_initializer": {"class_name": "Ones", "config": {}}, "beta_regularizer": null, "gamma_regularizer": null, "beta_constraint": null, "gamma_constraint": null}, "inbound_nodes": [[["conv2d_64", 0, 0, {}]]]}, {"name": "activation_64", "class_name": "Activation", "config": {"name": "activation_64", "trainable": true, "dtype": "float32", "activation": "relu"}, "inbound_nodes": [[["batch_normalization_96", 0, 0, {}]]]}, {"name": "conv2d_107", "class_name": "Conv2D", "config": {"name": "conv2d_107", "trainable": true, "dtype": "float32", "filters": 17, "kernel_size": [3, 3], "strides": [1, 1], "padding": "same", "data_format": "channels_last", "dilation_rate": [1, 1], "activation": "linear", "use_bias": false, "kernel_initializer": {"class_name": "VarianceScaling", "config": {"scale": 1.0, "mode": "fan_avg", "distribution": "uniform", "seed": null}}, "bias_initializer": {"class_name": "Zeros", "config": {}}, "kernel_regularizer": null, "bias_regularizer": null, "activity_regularizer": null, "kernel_constraint": null, "bias_constraint": null}, "inbound_nodes": [[["concatenate_23", 0, 0, {}]]]}, {"name": "add_22", "class_name": "Add", "config": {"name": "add_22", "trainable": true, "dtype": "float32"}, "inbound_nodes": [[["batch_normalization_95", 0, 0, {}], ["activation_64", 0, 0, {}]]]}, {"name": "batch_normalization_159", "class_name": "BatchNormalization", "config": {"name": "batch_normalization_159", "trainable": true, "dtype": "float32", "axis": 3, "momentum": 0.99, "epsilon": 0.001, "center": true, "scale": false, "beta_initializer": {"class_name": "Zeros", "config": {}}, "gamma_initializer": {"class_name": "Ones", "config": {}}, "moving_mean_initializer": {"class_name": "Zeros", "config": {}}, "moving_variance_initializer": {"class_name": "Ones", "config": {}}, "beta_regularizer": null, "gamma_regularizer": null, "beta_constraint": null, "gamma_constraint": null}, "inbound_nodes": [[["conv2d_107", 0, 0, {}]]]}, {"name": "activation_65", "class_name": "Activation", "config": {"name": "activation_65", "trainable": true, "dtype": "float32", "activation": "relu"}, "inbound_nodes": [[["add_22", 0, 0, {}]]]}, {"name": "activation_106", "class_name": "Activation", "config": {"name": "activation_106", "trainable": true, "dtype": "float32", "activation": "relu"}, "inbound_nodes": [[["batch_normalization_159", 0, 0, {}]]]}, {"name": "batch_normalization_97", "class_name": "BatchNormalization", "config": {"name": "batch_normalization_97", "trainable": true, "dtype": "float32", "axis": 3, "momentum": 0.99, "epsilon": 0.001, "center": true, "scale": true, "beta_initializer": {"class_name": "Zeros", "config": {}}, "gamma_initializer": {"class_name": "Ones", "config": {}}, "moving_mean_initializer": {"class_name": "Zeros", "config": {}}, "moving_variance_initializer": {"class_name": "Ones", "config": {}}, "beta_regularizer": null, "gamma_regularizer": null, "beta_constraint": null, "gamma_constraint": null}, "inbound_nodes": [[["activation_65", 0, 0, {}]]]}, {"name": "conv2d_108", "class_name": "Conv2D", "config": {"name": "conv2d_108", "trainable": true, "dtype": "float32", "filters": 35, "kernel_size": [3, 3], "strides": [1, 1], "padding": "same", "data_format": "channels_last", "dilation_rate": [1, 1], "activation": "linear", "use_bias": false, "kernel_initializer": {"class_name": "VarianceScaling", "config": {"scale": 1.0, "mode": "fan_avg", "distribution": "uniform", "seed": null}}, "bias_initializer": {"class_name": "Zeros", "config": {}}, "kernel_regularizer": null, "bias_regularizer": null, "activity_regularizer": null, "kernel_constraint": null, "bias_constraint": null}, "inbound_nodes": [[["activation_106", 0, 0, {}]]]}, {"name": "conv2d_67", "class_name": "Conv2D", "config": {"name": "conv2d_67", "trainable": true, "dtype": "float32", "filters": 32, "kernel_size": [3, 3], "strides": [1, 1], "padding": "same", "data_format": "channels_last", "dilation_rate": [1, 1], "activation": "linear", "use_bias": false, "kernel_initializer": {"class_name": "VarianceScaling", "config": {"scale": 1.0, "mode": "fan_avg", "distribution": "uniform", "seed": null}}, "bias_initializer": {"class_name": "Zeros", "config": {}}, "kernel_regularizer": null, "bias_regularizer": null, "activity_regularizer": null, "kernel_constraint": null, "bias_constraint": null}, "inbound_nodes": [[["batch_normalization_97", 0, 0, {}]]]}, {"name": "batch_normalization_160", "class_name": "BatchNormalization", "config": {"name": "batch_normalization_160", "trainable": true, "dtype": "float32", "axis": 3, "momentum": 0.99, "epsilon": 0.001, "center": true, "scale": false, "beta_initializer": {"class_name": "Zeros", "config": {}}, "gamma_initializer": {"class_name": "Ones", "config": {}}, "moving_mean_initializer": {"class_name": "Zeros", "config": {}}, "moving_variance_initializer": {"class_name": "Ones", "config": {}}, "beta_regularizer": null, "gamma_regularizer": null, "beta_constraint": null, "gamma_constraint": null}, "inbound_nodes": [[["conv2d_108", 0, 0, {}]]]}, {"name": "conv2d_66", "class_name": "Conv2D", "config": {"name": "conv2d_66", "trainable": true, "dtype": "float32", "filters": 32, "kernel_size": [1, 1], "strides": [1, 1], "padding": "same", "data_format": "channels_last", "dilation_rate": [1, 1], "activation": "linear", "use_bias": false, "kernel_initializer": {"class_name": "VarianceScaling", "config": {"scale": 1.0, "mode": "fan_avg", "distribution": "uniform", "seed": null}}, "bias_initializer": {"class_name": "Zeros", "config": {}}, "kernel_regularizer": null, "bias_regularizer": null, "activity_regularizer": null, "kernel_constraint": null, "bias_constraint": null}, "inbound_nodes": [[["batch_normalization_97", 0, 0, {}]]]}, {"name": "batch_normalization_99", "class_name": "BatchNormalization", "config": {"name": "batch_normalization_99", "trainable": true, "dtype": "float32", "axis": 3, "momentum": 0.99, "epsilon": 0.001, "center": true, "scale": false, "beta_initializer": {"class_name": "Zeros", "config": {}}, "gamma_initializer": {"class_name": "Ones", "config": {}}, "moving_mean_initializer": {"class_name": "Zeros", "config": {}}, "moving_variance_initializer": {"class_name": "Ones", "config": {}}, "beta_regularizer": null, "gamma_regularizer": null, "beta_constraint": null, "gamma_constraint": null}, "inbound_nodes": [[["conv2d_67", 0, 0, {}]]]}, {"name": "activation_107", "class_name": "Activation", "config": {"name": "activation_107", "trainable": true, "dtype": "float32", "activation": "relu"}, "inbound_nodes": [[["batch_normalization_160", 0, 0, {}]]]}, {"name": "batch_normalization_98", "class_name": "BatchNormalization", "config": {"name": "batch_normalization_98", "trainable": true, "dtype": "float32", "axis": 3, "momentum": 0.99, "epsilon": 0.001, "center": true, "scale": false, "beta_initializer": {"class_name": "Zeros", "config": {}}, "gamma_initializer": {"class_name": "Ones", "config": {}}, "moving_mean_initializer": {"class_name": "Zeros", "config": {}}, "moving_variance_initializer": {"class_name": "Ones", "config": {}}, "beta_regularizer": null, "gamma_regularizer": null, "beta_constraint": null, "gamma_constraint": null}, "inbound_nodes": [[["conv2d_66", 0, 0, {}]]]}, {"name": "activation_66", "class_name": "Activation", "config": {"name": "activation_66", "trainable": true, "dtype": "float32", "activation": "relu"}, "inbound_nodes": [[["batch_normalization_99", 0, 0, {}]]]}, {"name": "conv2d_109", "class_name": "Conv2D", "config": {"name": "conv2d_109", "trainable": true, "dtype": "float32", "filters": 53, "kernel_size": [3, 3], "strides": [1, 1], "padding": "same", "data_format": "channels_last", "dilation_rate": [1, 1], "activation": "linear", "use_bias": false, "kernel_initializer": {"class_name": "VarianceScaling", "config": {"scale": 1.0, "mode": "fan_avg", "distribution": "uniform", "seed": null}}, "bias_initializer": {"class_name": "Zeros", "config": {}}, "kernel_regularizer": null, "bias_regularizer": null, "activity_regularizer": null, "kernel_constraint": null, "bias_constraint": null}, "inbound_nodes": [[["activation_107", 0, 0, {}]]]}, {"name": "add_23", "class_name": "Add", "config": {"name": "add_23", "trainable": true, "dtype": "float32"}, "inbound_nodes": [[["batch_normalization_98", 0, 0, {}], ["activation_66", 0, 0, {}]]]}, {"name": "batch_normalization_161", "class_name": "BatchNormalization", "config": {"name": "batch_normalization_161", "trainable": true, "dtype": "float32", "axis": 3, "momentum": 0.99, "epsilon": 0.001, "center": true, "scale": false, "beta_initializer": {"class_name": "Zeros", "config": {}}, "gamma_initializer": {"class_name": "Ones", "config": {}}, "moving_mean_initializer": {"class_name": "Zeros", "config": {}}, "moving_variance_initializer": {"class_name": "Ones", "config": {}}, "beta_regularizer": null, "gamma_regularizer": null, "beta_constraint": null, "gamma_constraint": null}, "inbound_nodes": [[["conv2d_109", 0, 0, {}]]]}, {"name": "activation_67", "class_name": "Activation", "config": {"name": "activation_67", "trainable": true, "dtype": "float32", "activation": "relu"}, "inbound_nodes": [[["add_23", 0, 0, {}]]]}, {"name": "activation_108", "class_name": "Activation", "config": {"name": "activation_108", "trainable": true, "dtype": "float32", "activation": "relu"}, "inbound_nodes": [[["batch_normalization_161", 0, 0, {}]]]}, {"name": "batch_normalization_100", "class_name": "BatchNormalization", "config": {"name": "batch_normalization_100", "trainable": true, "dtype": "float32", "axis": 3, "momentum": 0.99, "epsilon": 0.001, "center": true, "scale": true, "beta_initializer": {"class_name": "Zeros", "config": {}}, "gamma_initializer": {"class_name": "Ones", "config": {}}, "moving_mean_initializer": {"class_name": "Zeros", "config": {}}, "moving_variance_initializer": {"class_name": "Ones", "config": {}}, "beta_regularizer": null, "gamma_regularizer": null, "beta_constraint": null, "gamma_constraint": null}, "inbound_nodes": [[["activation_67", 0, 0, {}]]]}, {"name": "conv2d_106", "class_name": "Conv2D", "config": {"name": "conv2d_106", "trainable": true, "dtype": "float32", "filters": 105, "kernel_size": [1, 1], "strides": [1, 1], "padding": "same", "data_format": "channels_last", "dilation_rate": [1, 1], "activation": "linear", "use_bias": false, "kernel_initializer": {"class_name": "VarianceScaling", "config": {"scale": 1.0, "mode": "fan_avg", "distribution": "uniform", "seed": null}}, "bias_initializer": {"class_name": "Zeros", "config": {}}, "kernel_regularizer": null, "bias_regularizer": null, "activity_regularizer": null, "kernel_constraint": null, "bias_constraint": null}, "inbound_nodes": [[["concatenate_23", 0, 0, {}]]]}, {"name": "concatenate_24", "class_name": "Concatenate", "config": {"name": "concatenate_24", "trainable": true, "dtype": "float32", "axis": 3}, "inbound_nodes": [[["activation_106", 0, 0, {}], ["activation_107", 0, 0, {}], ["activation_108", 0, 0, {}]]]}, {"name": "conv2d_69", "class_name": "Conv2D", "config": {"name": "conv2d_69", "trainable": true, "dtype": "float32", "filters": 32, "kernel_size": [3, 3], "strides": [1, 1], "padding": "same", "data_format": "channels_last", "dilation_rate": [1, 1], "activation": "linear", "use_bias": false, "kernel_initializer": {"class_name": "VarianceScaling", "config": {"scale": 1.0, "mode": "fan_avg", "distribution": "uniform", "seed": null}}, "bias_initializer": {"class_name": "Zeros", "config": {}}, "kernel_regularizer": null, "bias_regularizer": null, "activity_regularizer": null, "kernel_constraint": null, "bias_constraint": null}, "inbound_nodes": [[["batch_normalization_100", 0, 0, {}]]]}, {"name": "batch_normalization_158", "class_name": "BatchNormalization", "config": {"name": "batch_normalization_158", "trainable": true, "dtype": "float32", "axis": 3, "momentum": 0.99, "epsilon": 0.001, "center": true, "scale": false, "beta_initializer": {"class_name": "Zeros", "config": {}}, "gamma_initializer": {"class_name": "Ones", "config": {}}, "moving_mean_initializer": {"class_name": "Zeros", "config": {}}, "moving_variance_initializer": {"class_name": "Ones", "config": {}}, "beta_regularizer": null, "gamma_regularizer": null, "beta_constraint": null, "gamma_constraint": null}, "inbound_nodes": [[["conv2d_106", 0, 0, {}]]]}, {"name": "batch_normalization_162", "class_name": "BatchNormalization", "config": {"name": "batch_normalization_162", "trainable": true, "dtype": "float32", "axis": 3, "momentum": 0.99, "epsilon": 0.001, "center": true, "scale": true, "beta_initializer": {"class_name": "Zeros", "config": {}}, "gamma_initializer": {"class_name": "Ones", "config": {}}, "moving_mean_initializer": {"class_name": "Zeros", "config": {}}, "moving_variance_initializer": {"class_name": "Ones", "config": {}}, "beta_regularizer": null, "gamma_regularizer": null, "beta_constraint": null, "gamma_constraint": null}, "inbound_nodes": [[["concatenate_24", 0, 0, {}]]]}, {"name": "conv2d_68", "class_name": "Conv2D", "config": {"name": "conv2d_68", "trainable": true, "dtype": "float32", "filters": 32, "kernel_size": [1, 1], "strides": [1, 1], "padding": "same", "data_format": "channels_last", "dilation_rate": [1, 1], "activation": "linear", "use_bias": false, "kernel_initializer": {"class_name": "VarianceScaling", "config": {"scale": 1.0, "mode": "fan_avg", "distribution": "uniform", "seed": null}}, "bias_initializer": {"class_name": "Zeros", "config": {}}, "kernel_regularizer": null, "bias_regularizer": null, "activity_regularizer": null, "kernel_constraint": null, "bias_constraint": null}, "inbound_nodes": [[["batch_normalization_100", 0, 0, {}]]]}, {"name": "batch_normalization_102", "class_name": "BatchNormalization", "config": {"name": "batch_normalization_102", "trainable": true, "dtype": "float32", "axis": 3, "momentum": 0.99, "epsilon": 0.001, "center": true, "scale": false, "beta_initializer": {"class_name": "Zeros", "config": {}}, "gamma_initializer": {"class_name": "Ones", "config": {}}, "moving_mean_initializer": {"class_name": "Zeros", "config": {}}, "moving_variance_initializer": {"class_name": "Ones", "config": {}}, "beta_regularizer": null, "gamma_regularizer": null, "beta_constraint": null, "gamma_constraint": null}, "inbound_nodes": [[["conv2d_69", 0, 0, {}]]]}, {"name": "add_37", "class_name": "Add", "config": {"name": "add_37", "trainable": true, "dtype": "float32"}, "inbound_nodes": [[["batch_normalization_158", 0, 0, {}], ["batch_normalization_162", 0, 0, {}]]]}, {"name": "batch_normalization_101", "class_name": "BatchNormalization", "config": {"name": "batch_normalization_101", "trainable": true, "dtype": "float32", "axis": 3, "momentum": 0.99, "epsilon": 0.001, "center": true, "scale": false, "beta_initializer": {"class_name": "Zeros", "config": {}}, "gamma_initializer": {"class_name": "Ones", "config": {}}, "moving_mean_initializer": {"class_name": "Zeros", "config": {}}, "moving_variance_initializer": {"class_name": "Ones", "config": {}}, "beta_regularizer": null, "gamma_regularizer": null, "beta_constraint": null, "gamma_constraint": null}, "inbound_nodes": [[["conv2d_68", 0, 0, {}]]]}, {"name": "activation_68", "class_name": "Activation", "config": {"name": "activation_68", "trainable": true, "dtype": "float32", "activation": "relu"}, "inbound_nodes": [[["batch_normalization_102", 0, 0, {}]]]}, {"name": "activation_109", "class_name": "Activation", "config": {"name": "activation_109", "trainable": true, "dtype": "float32", "activation": "relu"}, "inbound_nodes": [[["add_37", 0, 0, {}]]]}, {"name": "add_24", "class_name": "Add", "config": {"name": "add_24", "trainable": true, "dtype": "float32"}, "inbound_nodes": [[["batch_normalization_101", 0, 0, {}], ["activation_68", 0, 0, {}]]]}, {"name": "batch_normalization_163", "class_name": "BatchNormalization", "config": {"name": "batch_normalization_163", "trainable": true, "dtype": "float32", "axis": 3, "momentum": 0.99, "epsilon": 0.001, "center": true, "scale": true, "beta_initializer": {"class_name": "Zeros", "config": {}}, "gamma_initializer": {"class_name": "Ones", "config": {}}, "moving_mean_initializer": {"class_name": "Zeros", "config": {}}, "moving_variance_initializer": {"class_name": "Ones", "config": {}}, "beta_regularizer": null, "gamma_regularizer": null, "beta_constraint": null, "gamma_constraint": null}, "inbound_nodes": [[["activation_109", 0, 0, {}]]]}, {"name": "activation_69", "class_name": "Activation", "config": {"name": "activation_69", "trainable": true, "dtype": "float32", "activation": "relu"}, "inbound_nodes": [[["add_24", 0, 0, {}]]]}, {"name": "conv2d_transpose_8", "class_name": "Conv2DTranspose", "config": {"name": "conv2d_transpose_8", "trainable": true, "dtype": "float32", "filters": 32, "kernel_size": [2, 2], "strides": [2, 2], "padding": "same", "data_format": "channels_last", "dilation_rate": [1, 1], "activation": "linear", "use_bias": true, "kernel_initializer": {"class_name": "VarianceScaling", "config": {"scale": 1.0, "mode": "fan_avg", "distribution": "uniform", "seed": null}}, "bias_initializer": {"class_name": "Zeros", "config": {}}, "kernel_regularizer": null, "bias_regularizer": null, "activity_regularizer": null, "kernel_constraint": null, "bias_constraint": null, "output_padding": null}, "inbound_nodes": [[["batch_normalization_163", 0, 0, {}]]]}, {"name": "batch_normalization_103", "class_name": "BatchNormalization", "config": {"name": "batch_normalization_103", "trainable": true, "dtype": "float32", "axis": 3, "momentum": 0.99, "epsilon": 0.001, "center": true, "scale": true, "beta_initializer": {"class_name": "Zeros", "config": {}}, "gamma_initializer": {"class_name": "Ones", "config": {}}, "moving_mean_initializer": {"class_name": "Zeros", "config": {}}, "moving_variance_initializer": {"class_name": "Ones", "config": {}}, "beta_regularizer": null, "gamma_regularizer": null, "beta_constraint": null, "gamma_constraint": null}, "inbound_nodes": [[["activation_69", 0, 0, {}]]]}, {"name": "concatenate_25", "class_name": "Concatenate", "config": {"name": "concatenate_25", "trainable": true, "dtype": "float32", "axis": 3}, "inbound_nodes": [[["conv2d_transpose_8", 0, 0, {}], ["batch_normalization_103", 0, 0, {}]]]}, {"name": "conv2d_111", "class_name": "Conv2D", "config": {"name": "conv2d_111", "trainable": true, "dtype": "float32", "filters": 8, "kernel_size": [3, 3], "strides": [1, 1], "padding": "same", "data_format": "channels_last", "dilation_rate": [1, 1], "activation": "linear", "use_bias": false, "kernel_initializer": {"class_name": "VarianceScaling", "config": {"scale": 1.0, "mode": "fan_avg", "distribution": "uniform", "seed": null}}, "bias_initializer": {"class_name": "Zeros", "config": {}}, "kernel_regularizer": null, "bias_regularizer": null, "activity_regularizer": null, "kernel_constraint": null, "bias_constraint": null}, "inbound_nodes": [[["concatenate_25", 0, 0, {}]]]}, {"name": "batch_normalization_165", "class_name": "BatchNormalization", "config": {"name": "batch_normalization_165", "trainable": true, "dtype": "float32", "axis": 3, "momentum": 0.99, "epsilon": 0.001, "center": true, "scale": false, "beta_initializer": {"class_name": "Zeros", "config": {}}, "gamma_initializer": {"class_name": "Ones", "config": {}}, "moving_mean_initializer": {"class_name": "Zeros", "config": {}}, "moving_variance_initializer": {"class_name": "Ones", "config": {}}, "beta_regularizer": null, "gamma_regularizer": null, "beta_constraint": null, "gamma_constraint": null}, "inbound_nodes": [[["conv2d_111", 0, 0, {}]]]}, {"name": "activation_110", "class_name": "Activation", "config": {"name": "activation_110", "trainable": true, "dtype": "float32", "activation": "relu"}, "inbound_nodes": [[["batch_normalization_165", 0, 0, {}]]]}, {"name": "conv2d_112", "class_name": "Conv2D", "config": {"name": "conv2d_112", "trainable": true, "dtype": "float32", "filters": 17, "kernel_size": [3, 3], "strides": [1, 1], "padding": "same", "data_format": "channels_last", "dilation_rate": [1, 1], "activation": "linear", "use_bias": false, "kernel_initializer": {"class_name": "VarianceScaling", "config": {"scale": 1.0, "mode": "fan_avg", "distribution": "uniform", "seed": null}}, "bias_initializer": {"class_name": "Zeros", "config": {}}, "kernel_regularizer": null, "bias_regularizer": null, "activity_regularizer": null, "kernel_constraint": null, "bias_constraint": null}, "inbound_nodes": [[["activation_110", 0, 0, {}]]]}, {"name": "batch_normalization_166", "class_name": "BatchNormalization", "config": {"name": "batch_normalization_166", "trainable": true, "dtype": "float32", "axis": 3, "momentum": 0.99, "epsilon": 0.001, "center": true, "scale": false, "beta_initializer": {"class_name": "Zeros", "config": {}}, "gamma_initializer": {"class_name": "Ones", "config": {}}, "moving_mean_initializer": {"class_name": "Zeros", "config": {}}, "moving_variance_initializer": {"class_name": "Ones", "config": {}}, "beta_regularizer": null, "gamma_regularizer": null, "beta_constraint": null, "gamma_constraint": null}, "inbound_nodes": [[["conv2d_112", 0, 0, {}]]]}, {"name": "activation_111", "class_name": "Activation", "config": {"name": "activation_111", "trainable": true, "dtype": "float32", "activation": "relu"}, "inbound_nodes": [[["batch_normalization_166", 0, 0, {}]]]}, {"name": "conv2d_113", "class_name": "Conv2D", "config": {"name": "conv2d_113", "trainable": true, "dtype": "float32", "filters": 26, "kernel_size": [3, 3], "strides": [1, 1], "padding": "same", "data_format": "channels_last", "dilation_rate": [1, 1], "activation": "linear", "use_bias": false, "kernel_initializer": {"class_name": "VarianceScaling", "config": {"scale": 1.0, "mode": "fan_avg", "distribution": "uniform", "seed": null}}, "bias_initializer": {"class_name": "Zeros", "config": {}}, "kernel_regularizer": null, "bias_regularizer": null, "activity_regularizer": null, "kernel_constraint": null, "bias_constraint": null}, "inbound_nodes": [[["activation_111", 0, 0, {}]]]}, {"name": "batch_normalization_167", "class_name": "BatchNormalization", "config": {"name": "batch_normalization_167", "trainable": true, "dtype": "float32", "axis": 3, "momentum": 0.99, "epsilon": 0.001, "center": true, "scale": false, "beta_initializer": {"class_name": "Zeros", "config": {}}, "gamma_initializer": {"class_name": "Ones", "config": {}}, "moving_mean_initializer": {"class_name": "Zeros", "config": {}}, "moving_variance_initializer": {"class_name": "Ones", "config": {}}, "beta_regularizer": null, "gamma_regularizer": null, "beta_constraint": null, "gamma_constraint": null}, "inbound_nodes": [[["conv2d_113", 0, 0, {}]]]}, {"name": "activation_112", "class_name": "Activation", "config": {"name": "activation_112", "trainable": true, "dtype": "float32", "activation": "relu"}, "inbound_nodes": [[["batch_normalization_167", 0, 0, {}]]]}, {"name": "conv2d_110", "class_name": "Conv2D", "config": {"name": "conv2d_110", "trainable": true, "dtype": "float32", "filters": 51, "kernel_size": [1, 1], "strides": [1, 1], "padding": "same", "data_format": "channels_last", "dilation_rate": [1, 1], "activation": "linear", "use_bias": false, "kernel_initializer": {"class_name": "VarianceScaling", "config": {"scale": 1.0, "mode": "fan_avg", "distribution": "uniform", "seed": null}}, "bias_initializer": {"class_name": "Zeros", "config": {}}, "kernel_regularizer": null, "bias_regularizer": null, "activity_regularizer": null, "kernel_constraint": null, "bias_constraint": null}, "inbound_nodes": [[["concatenate_25", 0, 0, {}]]]}, {"name": "concatenate_26", "class_name": "Concatenate", "config": {"name": "concatenate_26", "trainable": true, "dtype": "float32", "axis": 3}, "inbound_nodes": [[["activation_110", 0, 0, {}], ["activation_111", 0, 0, {}], ["activation_112", 0, 0, {}]]]}, {"name": "batch_normalization_164", "class_name": "BatchNormalization", "config": {"name": "batch_normalization_164", "trainable": true, "dtype": "float32", "axis": 3, "momentum": 0.99, "epsilon": 0.001, "center": true, "scale": false, "beta_initializer": {"class_name": "Zeros", "config": {}}, "gamma_initializer": {"class_name": "Ones", "config": {}}, "moving_mean_initializer": {"class_name": "Zeros", "config": {}}, "moving_variance_initializer": {"class_name": "Ones", "config": {}}, "beta_regularizer": null, "gamma_regularizer": null, "beta_constraint": null, "gamma_constraint": null}, "inbound_nodes": [[["conv2d_110", 0, 0, {}]]]}, {"name": "batch_normalization_168", "class_name": "BatchNormalization", "config": {"name": "batch_normalization_168", "trainable": true, "dtype": "float32", "axis": 3, "momentum": 0.99, "epsilon": 0.001, "center": true, "scale": true, "beta_initializer": {"class_name": "Zeros", "config": {}}, "gamma_initializer": {"class_name": "Ones", "config": {}}, "moving_mean_initializer": {"class_name": "Zeros", "config": {}}, "moving_variance_initializer": {"class_name": "Ones", "config": {}}, "beta_regularizer": null, "gamma_regularizer": null, "beta_constraint": null, "gamma_constraint": null}, "inbound_nodes": [[["concatenate_26", 0, 0, {}]]]}, {"name": "add_38", "class_name": "Add", "config": {"name": "add_38", "trainable": true, "dtype": "float32"}, "inbound_nodes": [[["batch_normalization_164", 0, 0, {}], ["batch_normalization_168", 0, 0, {}]]]}, {"name": "activation_113", "class_name": "Activation", "config": {"name": "activation_113", "trainable": true, "dtype": "float32", "activation": "relu"}, "inbound_nodes": [[["add_38", 0, 0, {}]]]}, {"name": "batch_normalization_169", "class_name": "BatchNormalization", "config": {"name": "batch_normalization_169", "trainable": true, "dtype": "float32", "axis": 3, "momentum": 0.99, "epsilon": 0.001, "center": true, "scale": true, "beta_initializer": {"class_name": "Zeros", "config": {}}, "gamma_initializer": {"class_name": "Ones", "config": {}}, "moving_mean_initializer": {"class_name": "Zeros", "config": {}}, "moving_variance_initializer": {"class_name": "Ones", "config": {}}, "beta_regularizer": null, "gamma_regularizer": null, "beta_constraint": null, "gamma_constraint": null}, "inbound_nodes": [[["activation_113", 0, 0, {}]]]}, {"name": "conv2d_114", "class_name": "Conv2D", "config": {"name": "conv2d_114", "trainable": true, "dtype": "float32", "filters": 2, "kernel_size": [1, 1], "strides": [1, 1], "padding": "same", "data_format": "channels_last", "dilation_rate": [1, 1], "activation": "linear", "use_bias": false, "kernel_initializer": {"class_name": "VarianceScaling", "config": {"scale": 1.0, "mode": "fan_avg", "distribution": "uniform", "seed": null}}, "bias_initializer": {"class_name": "Zeros", "config": {}}, "kernel_regularizer": null, "bias_regularizer": null, "activity_regularizer": null, "kernel_constraint": null, "bias_constraint": null}, "inbound_nodes": [[["batch_normalization_169", 0, 0, {}]]]}, {"name": "batch_normalization_170", "class_name": "BatchNormalization", "config": {"name": "batch_normalization_170", "trainable": true, "dtype": "float32", "axis": 3, "momentum": 0.99, "epsilon": 0.001, "center": true, "scale": false, "beta_initializer": {"class_name": "Zeros", "config": {}}, "gamma_initializer": {"class_name": "Ones", "config": {}}, "moving_mean_initializer": {"class_name": "Zeros", "config": {}}, "moving_variance_initializer": {"class_name": "Ones", "config": {}}, "beta_regularizer": null, "gamma_regularizer": null, "beta_constraint": null, "gamma_constraint": null}, "inbound_nodes": [[["conv2d_114", 0, 0, {}]]]}, {"name": "activation_114", "class_name": "Activation", "config": {"name": "activation_114", "trainable": true, "dtype": "float32", "activation": "sigmoid"}, "inbound_nodes": [[["batch_normalization_170", 0, 0, {}]]]}], "input_layers": [["input_2", 0, 0]], "output_layers": [["activation_114", 0, 0]]}, "keras_version": "2.3.1", "backend": "tensorflow"}